{"format": "layers-model", "generatedBy": "keras v2.2.4-tf", "convertedBy": "TensorFlow.js Converter v4.16.0", "modelTopology": {"keras_version": "2.2.4-tf", "backend": "tensorflow", "model_config": {"class_name": "Model", "config": {"name": "model_16", "layers": [{"name": "input_14", "class_name": "InputLayer", "config": {"batch_input_shape": [null, 200, 200, 3], "dtype": "float32", "sparse": false, "ragged": false, "name": "input_14"}, "inbound_nodes": []}, {"name": "conv2d_1222", "class_name": "Conv2D", "config": {"name": "conv2d_1222", "trainable": true, "dtype": "float32", "filters": 32, "kernel_size": [3, 3], "strides": [2, 2], "padding": "valid", "data_format": "channels_last", "dilation_rate": [1, 1], "activation": "linear", "use_bias": false, "kernel_initializer": {"class_name": "GlorotUniform", "config": {"seed": null, "dtype": "float32"}}, "bias_initializer": {"class_name": "Zeros", "config": {"dtype": "float32"}}, "kernel_regularizer": null, "bias_regularizer": null, "activity_regularizer": null, "kernel_constraint": null, "bias_constraint": null}, "inbound_nodes": [[["input_14", 0, 0, {}]]]}, {"name": "batch_normalization_1222", "class_name": "BatchNormalization", "config": {"name": "batch_normalization_1222", "trainable": true, "dtype": "float32", "axis": [3], "momentum": 0.99, "epsilon": 0.001, "center": true, "scale": false, "beta_initializer": {"class_name": "Zeros", "config": {"dtype": "float32"}}, "gamma_initializer": {"class_name": "Ones", "config": {"dtype": "float32"}}, "moving_mean_initializer": {"class_name": "Zeros", "config": {"dtype": "float32"}}, "moving_variance_initializer": {"class_name": "Ones", "config": {"dtype": "float32"}}, "beta_regularizer": null, "gamma_regularizer": null, "beta_constraint": null, "gamma_constraint": null}, "inbound_nodes": [[["conv2d_1222", 0, 0, {}]]]}, {"name": "activation_1222", "class_name": "Activation", "config": {"name": "activation_1222", "trainable": true, "dtype": "float32", "activation": "relu"}, "inbound_nodes": [[["batch_normalization_1222", 0, 0, {}]]]}, {"name": "conv2d_1223", "class_name": "Conv2D", "config": {"name": "conv2d_1223", "trainable": true, "dtype": "float32", "filters": 32, "kernel_size": [3, 3], "strides": [1, 1], "padding": "valid", "data_format": "channels_last", "dilation_rate": [1, 1], "activation": "linear", "use_bias": false, "kernel_initializer": {"class_name": "GlorotUniform", "config": {"seed": null, "dtype": "float32"}}, "bias_initializer": {"class_name": "Zeros", "config": {"dtype": "float32"}}, "kernel_regularizer": null, "bias_regularizer": null, "activity_regularizer": null, "kernel_constraint": null, "bias_constraint": null}, "inbound_nodes": [[["activation_1222", 0, 0, {}]]]}, {"name": "batch_normalization_1223", "class_name": "BatchNormalization", "config": {"name": "batch_normalization_1223", "trainable": true, "dtype": "float32", "axis": [3], "momentum": 0.99, "epsilon": 0.001, "center": true, "scale": false, "beta_initializer": {"class_name": "Zeros", "config": {"dtype": "float32"}}, "gamma_initializer": {"class_name": "Ones", "config": {"dtype": "float32"}}, "moving_mean_initializer": {"class_name": "Zeros", "config": {"dtype": "float32"}}, "moving_variance_initializer": {"class_name": "Ones", "config": {"dtype": "float32"}}, "beta_regularizer": null, "gamma_regularizer": null, "beta_constraint": null, "gamma_constraint": null}, "inbound_nodes": [[["conv2d_1223", 0, 0, {}]]]}, {"name": "activation_1223", "class_name": "Activation", "config": {"name": "activation_1223", "trainable": true, "dtype": "float32", "activation": "relu"}, "inbound_nodes": [[["batch_normalization_1223", 0, 0, {}]]]}, {"name": "conv2d_1224", "class_name": "Conv2D", "config": {"name": "conv2d_1224", "trainable": true, "dtype": "float32", "filters": 64, "kernel_size": [3, 3], "strides": [1, 1], "padding": "same", "data_format": "channels_last", "dilation_rate": [1, 1], "activation": "linear", "use_bias": false, "kernel_initializer": {"class_name": "GlorotUniform", "config": {"seed": null, "dtype": "float32"}}, "bias_initializer": {"class_name": "Zeros", "config": {"dtype": "float32"}}, "kernel_regularizer": null, "bias_regularizer": null, "activity_regularizer": null, "kernel_constraint": null, "bias_constraint": null}, "inbound_nodes": [[["activation_1223", 0, 0, {}]]]}, {"name": "batch_normalization_1224", "class_name": "BatchNormalization", "config": {"name": "batch_normalization_1224", "trainable": true, "dtype": "float32", "axis": [3], "momentum": 0.99, "epsilon": 0.001, "center": true, "scale": false, "beta_initializer": {"class_name": "Zeros", "config": {"dtype": "float32"}}, "gamma_initializer": {"class_name": "Ones", "config": {"dtype": "float32"}}, "moving_mean_initializer": {"class_name": "Zeros", "config": {"dtype": "float32"}}, "moving_variance_initializer": {"class_name": "Ones", "config": {"dtype": "float32"}}, "beta_regularizer": null, "gamma_regularizer": null, "beta_constraint": null, "gamma_constraint": null}, "inbound_nodes": [[["conv2d_1224", 0, 0, {}]]]}, {"name": "activation_1224", "class_name": "Activation", "config": {"name": "activation_1224", "trainable": true, "dtype": "float32", "activation": "relu"}, "inbound_nodes": [[["batch_normalization_1224", 0, 0, {}]]]}, {"name": "max_pooling2d_52", "class_name": "MaxPooling2D", "config": {"name": "max_pooling2d_52", "trainable": true, "dtype": "float32", "pool_size": [3, 3], "padding": "valid", "strides": [2, 2], "data_format": "channels_last"}, "inbound_nodes": [[["activation_1224", 0, 0, {}]]]}, {"name": "conv2d_1225", "class_name": "Conv2D", "config": {"name": "conv2d_1225", "trainable": true, "dtype": "float32", "filters": 80, "kernel_size": [1, 1], "strides": [1, 1], "padding": "valid", "data_format": "channels_last", "dilation_rate": [1, 1], "activation": "linear", "use_bias": false, "kernel_initializer": {"class_name": "GlorotUniform", "config": {"seed": null, "dtype": "float32"}}, "bias_initializer": {"class_name": "Zeros", "config": {"dtype": "float32"}}, "kernel_regularizer": null, "bias_regularizer": null, "activity_regularizer": null, "kernel_constraint": null, "bias_constraint": null}, "inbound_nodes": [[["max_pooling2d_52", 0, 0, {}]]]}, {"name": "batch_normalization_1225", "class_name": "BatchNormalization", "config": {"name": "batch_normalization_1225", "trainable": true, "dtype": "float32", "axis": [3], "momentum": 0.99, "epsilon": 0.001, "center": true, "scale": false, "beta_initializer": {"class_name": "Zeros", "config": {"dtype": "float32"}}, "gamma_initializer": {"class_name": "Ones", "config": {"dtype": "float32"}}, "moving_mean_initializer": {"class_name": "Zeros", "config": {"dtype": "float32"}}, "moving_variance_initializer": {"class_name": "Ones", "config": {"dtype": "float32"}}, "beta_regularizer": null, "gamma_regularizer": null, "beta_constraint": null, "gamma_constraint": null}, "inbound_nodes": [[["conv2d_1225", 0, 0, {}]]]}, {"name": "activation_1225", "class_name": "Activation", "config": {"name": "activation_1225", "trainable": true, "dtype": "float32", "activation": "relu"}, "inbound_nodes": [[["batch_normalization_1225", 0, 0, {}]]]}, {"name": "conv2d_1226", "class_name": "Conv2D", "config": {"name": "conv2d_1226", "trainable": true, "dtype": "float32", "filters": 192, "kernel_size": [3, 3], "strides": [1, 1], "padding": "valid", "data_format": "channels_last", "dilation_rate": [1, 1], "activation": "linear", "use_bias": false, "kernel_initializer": {"class_name": "GlorotUniform", "config": {"seed": null, "dtype": "float32"}}, "bias_initializer": {"class_name": "Zeros", "config": {"dtype": "float32"}}, "kernel_regularizer": null, "bias_regularizer": null, "activity_regularizer": null, "kernel_constraint": null, "bias_constraint": null}, "inbound_nodes": [[["activation_1225", 0, 0, {}]]]}, {"name": "batch_normalization_1226", "class_name": "BatchNormalization", "config": {"name": "batch_normalization_1226", "trainable": true, "dtype": "float32", "axis": [3], "momentum": 0.99, "epsilon": 0.001, "center": true, "scale": false, "beta_initializer": {"class_name": "Zeros", "config": {"dtype": "float32"}}, "gamma_initializer": {"class_name": "Ones", "config": {"dtype": "float32"}}, "moving_mean_initializer": {"class_name": "Zeros", "config": {"dtype": "float32"}}, "moving_variance_initializer": {"class_name": "Ones", "config": {"dtype": "float32"}}, "beta_regularizer": null, "gamma_regularizer": null, "beta_constraint": null, "gamma_constraint": null}, "inbound_nodes": [[["conv2d_1226", 0, 0, {}]]]}, {"name": "activation_1226", "class_name": "Activation", "config": {"name": "activation_1226", "trainable": true, "dtype": "float32", "activation": "relu"}, "inbound_nodes": [[["batch_normalization_1226", 0, 0, {}]]]}, {"name": "max_pooling2d_53", "class_name": "MaxPooling2D", "config": {"name": "max_pooling2d_53", "trainable": true, "dtype": "float32", "pool_size": [3, 3], "padding": "valid", "strides": [2, 2], "data_format": "channels_last"}, "inbound_nodes": [[["activation_1226", 0, 0, {}]]]}, {"name": "conv2d_1230", "class_name": "Conv2D", "config": {"name": "conv2d_1230", "trainable": true, "dtype": "float32", "filters": 64, "kernel_size": [1, 1], "strides": [1, 1], "padding": "same", "data_format": "channels_last", "dilation_rate": [1, 1], "activation": "linear", "use_bias": false, "kernel_initializer": {"class_name": "GlorotUniform", "config": {"seed": null, "dtype": "float32"}}, "bias_initializer": {"class_name": "Zeros", "config": {"dtype": "float32"}}, "kernel_regularizer": null, "bias_regularizer": null, "activity_regularizer": null, "kernel_constraint": null, "bias_constraint": null}, "inbound_nodes": [[["max_pooling2d_53", 0, 0, {}]]]}, {"name": "batch_normalization_1230", "class_name": "BatchNormalization", "config": {"name": "batch_normalization_1230", "trainable": true, "dtype": "float32", "axis": [3], "momentum": 0.99, "epsilon": 0.001, "center": true, "scale": false, "beta_initializer": {"class_name": "Zeros", "config": {"dtype": "float32"}}, "gamma_initializer": {"class_name": "Ones", "config": {"dtype": "float32"}}, "moving_mean_initializer": {"class_name": "Zeros", "config": {"dtype": "float32"}}, "moving_variance_initializer": {"class_name": "Ones", "config": {"dtype": "float32"}}, "beta_regularizer": null, "gamma_regularizer": null, "beta_constraint": null, "gamma_constraint": null}, "inbound_nodes": [[["conv2d_1230", 0, 0, {}]]]}, {"name": "activation_1230", "class_name": "Activation", "config": {"name": "activation_1230", "trainable": true, "dtype": "float32", "activation": "relu"}, "inbound_nodes": [[["batch_normalization_1230", 0, 0, {}]]]}, {"name": "conv2d_1228", "class_name": "Conv2D", "config": {"name": "conv2d_1228", "trainable": true, "dtype": "float32", "filters": 48, "kernel_size": [1, 1], "strides": [1, 1], "padding": "same", "data_format": "channels_last", "dilation_rate": [1, 1], "activation": "linear", "use_bias": false, "kernel_initializer": {"class_name": "GlorotUniform", "config": {"seed": null, "dtype": "float32"}}, "bias_initializer": {"class_name": "Zeros", "config": {"dtype": "float32"}}, "kernel_regularizer": null, "bias_regularizer": null, "activity_regularizer": null, "kernel_constraint": null, "bias_constraint": null}, "inbound_nodes": [[["max_pooling2d_53", 0, 0, {}]]]}, {"name": "conv2d_1231", "class_name": "Conv2D", "config": {"name": "conv2d_1231", "trainable": true, "dtype": "float32", "filters": 96, "kernel_size": [3, 3], "strides": [1, 1], "padding": "same", "data_format": "channels_last", "dilation_rate": [1, 1], "activation": "linear", "use_bias": false, "kernel_initializer": {"class_name": "GlorotUniform", "config": {"seed": null, "dtype": "float32"}}, "bias_initializer": {"class_name": "Zeros", "config": {"dtype": "float32"}}, "kernel_regularizer": null, "bias_regularizer": null, "activity_regularizer": null, "kernel_constraint": null, "bias_constraint": null}, "inbound_nodes": [[["activation_1230", 0, 0, {}]]]}, {"name": "batch_normalization_1228", "class_name": "BatchNormalization", "config": {"name": "batch_normalization_1228", "trainable": true, "dtype": "float32", "axis": [3], "momentum": 0.99, "epsilon": 0.001, "center": true, "scale": false, "beta_initializer": {"class_name": "Zeros", "config": {"dtype": "float32"}}, "gamma_initializer": {"class_name": "Ones", "config": {"dtype": "float32"}}, "moving_mean_initializer": {"class_name": "Zeros", "config": {"dtype": "float32"}}, "moving_variance_initializer": {"class_name": "Ones", "config": {"dtype": "float32"}}, "beta_regularizer": null, "gamma_regularizer": null, "beta_constraint": null, "gamma_constraint": null}, "inbound_nodes": [[["conv2d_1228", 0, 0, {}]]]}, {"name": "batch_normalization_1231", "class_name": "BatchNormalization", "config": {"name": "batch_normalization_1231", "trainable": true, "dtype": "float32", "axis": [3], "momentum": 0.99, "epsilon": 0.001, "center": true, "scale": false, "beta_initializer": {"class_name": "Zeros", "config": {"dtype": "float32"}}, "gamma_initializer": {"class_name": "Ones", "config": {"dtype": "float32"}}, "moving_mean_initializer": {"class_name": "Zeros", "config": {"dtype": "float32"}}, "moving_variance_initializer": {"class_name": "Ones", "config": {"dtype": "float32"}}, "beta_regularizer": null, "gamma_regularizer": null, "beta_constraint": null, "gamma_constraint": null}, "inbound_nodes": [[["conv2d_1231", 0, 0, {}]]]}, {"name": "activation_1228", "class_name": "Activation", "config": {"name": "activation_1228", "trainable": true, "dtype": "float32", "activation": "relu"}, "inbound_nodes": [[["batch_normalization_1228", 0, 0, {}]]]}, {"name": "activation_1231", "class_name": "Activation", "config": {"name": "activation_1231", "trainable": true, "dtype": "float32", "activation": "relu"}, "inbound_nodes": [[["batch_normalization_1231", 0, 0, {}]]]}, {"name": "average_pooling2d_117", "class_name": "AveragePooling2D", "config": {"name": "average_pooling2d_117", "trainable": true, "dtype": "float32", "pool_size": [3, 3], "padding": "same", "strides": [1, 1], "data_format": "channels_last"}, "inbound_nodes": [[["max_pooling2d_53", 0, 0, {}]]]}, {"name": "conv2d_1227", "class_name": "Conv2D", "config": {"name": "conv2d_1227", "trainable": true, "dtype": "float32", "filters": 64, "kernel_size": [1, 1], "strides": [1, 1], "padding": "same", "data_format": "channels_last", "dilation_rate": [1, 1], "activation": "linear", "use_bias": false, "kernel_initializer": {"class_name": "GlorotUniform", "config": {"seed": null, "dtype": "float32"}}, "bias_initializer": {"class_name": "Zeros", "config": {"dtype": "float32"}}, "kernel_regularizer": null, "bias_regularizer": null, "activity_regularizer": null, "kernel_constraint": null, "bias_constraint": null}, "inbound_nodes": [[["max_pooling2d_53", 0, 0, {}]]]}, {"name": "conv2d_1229", "class_name": "Conv2D", "config": {"name": "conv2d_1229", "trainable": true, "dtype": "float32", "filters": 64, "kernel_size": [5, 5], "strides": [1, 1], "padding": "same", "data_format": "channels_last", "dilation_rate": [1, 1], "activation": "linear", "use_bias": false, "kernel_initializer": {"class_name": "GlorotUniform", "config": {"seed": null, "dtype": "float32"}}, "bias_initializer": {"class_name": "Zeros", "config": {"dtype": "float32"}}, "kernel_regularizer": null, "bias_regularizer": null, "activity_regularizer": null, "kernel_constraint": null, "bias_constraint": null}, "inbound_nodes": [[["activation_1228", 0, 0, {}]]]}, {"name": "conv2d_1232", "class_name": "Conv2D", "config": {"name": "conv2d_1232", "trainable": true, "dtype": "float32", "filters": 96, "kernel_size": [3, 3], "strides": [1, 1], "padding": "same", "data_format": "channels_last", "dilation_rate": [1, 1], "activation": "linear", "use_bias": false, "kernel_initializer": {"class_name": "GlorotUniform", "config": {"seed": null, "dtype": "float32"}}, "bias_initializer": {"class_name": "Zeros", "config": {"dtype": "float32"}}, "kernel_regularizer": null, "bias_regularizer": null, "activity_regularizer": null, "kernel_constraint": null, "bias_constraint": null}, "inbound_nodes": [[["activation_1231", 0, 0, {}]]]}, {"name": "conv2d_1233", "class_name": "Conv2D", "config": {"name": "conv2d_1233", "trainable": true, "dtype": "float32", "filters": 32, "kernel_size": [1, 1], "strides": [1, 1], "padding": "same", "data_format": "channels_last", "dilation_rate": [1, 1], "activation": "linear", "use_bias": false, "kernel_initializer": {"class_name": "GlorotUniform", "config": {"seed": null, "dtype": "float32"}}, "bias_initializer": {"class_name": "Zeros", "config": {"dtype": "float32"}}, "kernel_regularizer": null, "bias_regularizer": null, "activity_regularizer": null, "kernel_constraint": null, "bias_constraint": null}, "inbound_nodes": [[["average_pooling2d_117", 0, 0, {}]]]}, {"name": "batch_normalization_1227", "class_name": "BatchNormalization", "config": {"name": "batch_normalization_1227", "trainable": true, "dtype": "float32", "axis": [3], "momentum": 0.99, "epsilon": 0.001, "center": true, "scale": false, "beta_initializer": {"class_name": "Zeros", "config": {"dtype": "float32"}}, "gamma_initializer": {"class_name": "Ones", "config": {"dtype": "float32"}}, "moving_mean_initializer": {"class_name": "Zeros", "config": {"dtype": "float32"}}, "moving_variance_initializer": {"class_name": "Ones", "config": {"dtype": "float32"}}, "beta_regularizer": null, "gamma_regularizer": null, "beta_constraint": null, "gamma_constraint": null}, "inbound_nodes": [[["conv2d_1227", 0, 0, {}]]]}, {"name": "batch_normalization_1229", "class_name": "BatchNormalization", "config": {"name": "batch_normalization_1229", "trainable": true, "dtype": "float32", "axis": [3], "momentum": 0.99, "epsilon": 0.001, "center": true, "scale": false, "beta_initializer": {"class_name": "Zeros", "config": {"dtype": "float32"}}, "gamma_initializer": {"class_name": "Ones", "config": {"dtype": "float32"}}, "moving_mean_initializer": {"class_name": "Zeros", "config": {"dtype": "float32"}}, "moving_variance_initializer": {"class_name": "Ones", "config": {"dtype": "float32"}}, "beta_regularizer": null, "gamma_regularizer": null, "beta_constraint": null, "gamma_constraint": null}, "inbound_nodes": [[["conv2d_1229", 0, 0, {}]]]}, {"name": "batch_normalization_1232", "class_name": "BatchNormalization", "config": {"name": "batch_normalization_1232", "trainable": true, "dtype": "float32", "axis": [3], "momentum": 0.99, "epsilon": 0.001, "center": true, "scale": false, "beta_initializer": {"class_name": "Zeros", "config": {"dtype": "float32"}}, "gamma_initializer": {"class_name": "Ones", "config": {"dtype": "float32"}}, "moving_mean_initializer": {"class_name": "Zeros", "config": {"dtype": "float32"}}, "moving_variance_initializer": {"class_name": "Ones", "config": {"dtype": "float32"}}, "beta_regularizer": null, "gamma_regularizer": null, "beta_constraint": null, "gamma_constraint": null}, "inbound_nodes": [[["conv2d_1232", 0, 0, {}]]]}, {"name": "batch_normalization_1233", "class_name": "BatchNormalization", "config": {"name": "batch_normalization_1233", "trainable": true, "dtype": "float32", "axis": [3], "momentum": 0.99, "epsilon": 0.001, "center": true, "scale": false, "beta_initializer": {"class_name": "Zeros", "config": {"dtype": "float32"}}, "gamma_initializer": {"class_name": "Ones", "config": {"dtype": "float32"}}, "moving_mean_initializer": {"class_name": "Zeros", "config": {"dtype": "float32"}}, "moving_variance_initializer": {"class_name": "Ones", "config": {"dtype": "float32"}}, "beta_regularizer": null, "gamma_regularizer": null, "beta_constraint": null, "gamma_constraint": null}, "inbound_nodes": [[["conv2d_1233", 0, 0, {}]]]}, {"name": "activation_1227", "class_name": "Activation", "config": {"name": "activation_1227", "trainable": true, "dtype": "float32", "activation": "relu"}, "inbound_nodes": [[["batch_normalization_1227", 0, 0, {}]]]}, {"name": "activation_1229", "class_name": "Activation", "config": {"name": "activation_1229", "trainable": true, "dtype": "float32", "activation": "relu"}, "inbound_nodes": [[["batch_normalization_1229", 0, 0, {}]]]}, {"name": "activation_1232", "class_name": "Activation", "config": {"name": "activation_1232", "trainable": true, "dtype": "float32", "activation": "relu"}, "inbound_nodes": [[["batch_normalization_1232", 0, 0, {}]]]}, {"name": "activation_1233", "class_name": "Activation", "config": {"name": "activation_1233", "trainable": true, "dtype": "float32", "activation": "relu"}, "inbound_nodes": [[["batch_normalization_1233", 0, 0, {}]]]}, {"name": "mixed0", "class_name": "Concatenate", "config": {"name": "mixed0", "trainable": true, "dtype": "float32", "axis": 3}, "inbound_nodes": [[["activation_1227", 0, 0, {}], ["activation_1229", 0, 0, {}], ["activation_1232", 0, 0, {}], ["activation_1233", 0, 0, {}]]]}, {"name": "conv2d_1237", "class_name": "Conv2D", "config": {"name": "conv2d_1237", "trainable": true, "dtype": "float32", "filters": 64, "kernel_size": [1, 1], "strides": [1, 1], "padding": "same", "data_format": "channels_last", "dilation_rate": [1, 1], "activation": "linear", "use_bias": false, "kernel_initializer": {"class_name": "GlorotUniform", "config": {"seed": null, "dtype": "float32"}}, "bias_initializer": {"class_name": "Zeros", "config": {"dtype": "float32"}}, "kernel_regularizer": null, "bias_regularizer": null, "activity_regularizer": null, "kernel_constraint": null, "bias_constraint": null}, "inbound_nodes": [[["mixed0", 0, 0, {}]]]}, {"name": "batch_normalization_1237", "class_name": "BatchNormalization", "config": {"name": "batch_normalization_1237", "trainable": true, "dtype": "float32", "axis": [3], "momentum": 0.99, "epsilon": 0.001, "center": true, "scale": false, "beta_initializer": {"class_name": "Zeros", "config": {"dtype": "float32"}}, "gamma_initializer": {"class_name": "Ones", "config": {"dtype": "float32"}}, "moving_mean_initializer": {"class_name": "Zeros", "config": {"dtype": "float32"}}, "moving_variance_initializer": {"class_name": "Ones", "config": {"dtype": "float32"}}, "beta_regularizer": null, "gamma_regularizer": null, "beta_constraint": null, "gamma_constraint": null}, "inbound_nodes": [[["conv2d_1237", 0, 0, {}]]]}, {"name": "activation_1237", "class_name": "Activation", "config": {"name": "activation_1237", "trainable": true, "dtype": "float32", "activation": "relu"}, "inbound_nodes": [[["batch_normalization_1237", 0, 0, {}]]]}, {"name": "conv2d_1235", "class_name": "Conv2D", "config": {"name": "conv2d_1235", "trainable": true, "dtype": "float32", "filters": 48, "kernel_size": [1, 1], "strides": [1, 1], "padding": "same", "data_format": "channels_last", "dilation_rate": [1, 1], "activation": "linear", "use_bias": false, "kernel_initializer": {"class_name": "GlorotUniform", "config": {"seed": null, "dtype": "float32"}}, "bias_initializer": {"class_name": "Zeros", "config": {"dtype": "float32"}}, "kernel_regularizer": null, "bias_regularizer": null, "activity_regularizer": null, "kernel_constraint": null, "bias_constraint": null}, "inbound_nodes": [[["mixed0", 0, 0, {}]]]}, {"name": "conv2d_1238", "class_name": "Conv2D", "config": {"name": "conv2d_1238", "trainable": true, "dtype": "float32", "filters": 96, "kernel_size": [3, 3], "strides": [1, 1], "padding": "same", "data_format": "channels_last", "dilation_rate": [1, 1], "activation": "linear", "use_bias": false, "kernel_initializer": {"class_name": "GlorotUniform", "config": {"seed": null, "dtype": "float32"}}, "bias_initializer": {"class_name": "Zeros", "config": {"dtype": "float32"}}, "kernel_regularizer": null, "bias_regularizer": null, "activity_regularizer": null, "kernel_constraint": null, "bias_constraint": null}, "inbound_nodes": [[["activation_1237", 0, 0, {}]]]}, {"name": "batch_normalization_1235", "class_name": "BatchNormalization", "config": {"name": "batch_normalization_1235", "trainable": true, "dtype": "float32", "axis": [3], "momentum": 0.99, "epsilon": 0.001, "center": true, "scale": false, "beta_initializer": {"class_name": "Zeros", "config": {"dtype": "float32"}}, "gamma_initializer": {"class_name": "Ones", "config": {"dtype": "float32"}}, "moving_mean_initializer": {"class_name": "Zeros", "config": {"dtype": "float32"}}, "moving_variance_initializer": {"class_name": "Ones", "config": {"dtype": "float32"}}, "beta_regularizer": null, "gamma_regularizer": null, "beta_constraint": null, "gamma_constraint": null}, "inbound_nodes": [[["conv2d_1235", 0, 0, {}]]]}, {"name": "batch_normalization_1238", "class_name": "BatchNormalization", "config": {"name": "batch_normalization_1238", "trainable": true, "dtype": "float32", "axis": [3], "momentum": 0.99, "epsilon": 0.001, "center": true, "scale": false, "beta_initializer": {"class_name": "Zeros", "config": {"dtype": "float32"}}, "gamma_initializer": {"class_name": "Ones", "config": {"dtype": "float32"}}, "moving_mean_initializer": {"class_name": "Zeros", "config": {"dtype": "float32"}}, "moving_variance_initializer": {"class_name": "Ones", "config": {"dtype": "float32"}}, "beta_regularizer": null, "gamma_regularizer": null, "beta_constraint": null, "gamma_constraint": null}, "inbound_nodes": [[["conv2d_1238", 0, 0, {}]]]}, {"name": "activation_1235", "class_name": "Activation", "config": {"name": "activation_1235", "trainable": true, "dtype": "float32", "activation": "relu"}, "inbound_nodes": [[["batch_normalization_1235", 0, 0, {}]]]}, {"name": "activation_1238", "class_name": "Activation", "config": {"name": "activation_1238", "trainable": true, "dtype": "float32", "activation": "relu"}, "inbound_nodes": [[["batch_normalization_1238", 0, 0, {}]]]}, {"name": "average_pooling2d_118", "class_name": "AveragePooling2D", "config": {"name": "average_pooling2d_118", "trainable": true, "dtype": "float32", "pool_size": [3, 3], "padding": "same", "strides": [1, 1], "data_format": "channels_last"}, "inbound_nodes": [[["mixed0", 0, 0, {}]]]}, {"name": "conv2d_1234", "class_name": "Conv2D", "config": {"name": "conv2d_1234", "trainable": true, "dtype": "float32", "filters": 64, "kernel_size": [1, 1], "strides": [1, 1], "padding": "same", "data_format": "channels_last", "dilation_rate": [1, 1], "activation": "linear", "use_bias": false, "kernel_initializer": {"class_name": "GlorotUniform", "config": {"seed": null, "dtype": "float32"}}, "bias_initializer": {"class_name": "Zeros", "config": {"dtype": "float32"}}, "kernel_regularizer": null, "bias_regularizer": null, "activity_regularizer": null, "kernel_constraint": null, "bias_constraint": null}, "inbound_nodes": [[["mixed0", 0, 0, {}]]]}, {"name": "conv2d_1236", "class_name": "Conv2D", "config": {"name": "conv2d_1236", "trainable": true, "dtype": "float32", "filters": 64, "kernel_size": [5, 5], "strides": [1, 1], "padding": "same", "data_format": "channels_last", "dilation_rate": [1, 1], "activation": "linear", "use_bias": false, "kernel_initializer": {"class_name": "GlorotUniform", "config": {"seed": null, "dtype": "float32"}}, "bias_initializer": {"class_name": "Zeros", "config": {"dtype": "float32"}}, "kernel_regularizer": null, "bias_regularizer": null, "activity_regularizer": null, "kernel_constraint": null, "bias_constraint": null}, "inbound_nodes": [[["activation_1235", 0, 0, {}]]]}, {"name": "conv2d_1239", "class_name": "Conv2D", "config": {"name": "conv2d_1239", "trainable": true, "dtype": "float32", "filters": 96, "kernel_size": [3, 3], "strides": [1, 1], "padding": "same", "data_format": "channels_last", "dilation_rate": [1, 1], "activation": "linear", "use_bias": false, "kernel_initializer": {"class_name": "GlorotUniform", "config": {"seed": null, "dtype": "float32"}}, "bias_initializer": {"class_name": "Zeros", "config": {"dtype": "float32"}}, "kernel_regularizer": null, "bias_regularizer": null, "activity_regularizer": null, "kernel_constraint": null, "bias_constraint": null}, "inbound_nodes": [[["activation_1238", 0, 0, {}]]]}, {"name": "conv2d_1240", "class_name": "Conv2D", "config": {"name": "conv2d_1240", "trainable": true, "dtype": "float32", "filters": 64, "kernel_size": [1, 1], "strides": [1, 1], "padding": "same", "data_format": "channels_last", "dilation_rate": [1, 1], "activation": "linear", "use_bias": false, "kernel_initializer": {"class_name": "GlorotUniform", "config": {"seed": null, "dtype": "float32"}}, "bias_initializer": {"class_name": "Zeros", "config": {"dtype": "float32"}}, "kernel_regularizer": null, "bias_regularizer": null, "activity_regularizer": null, "kernel_constraint": null, "bias_constraint": null}, "inbound_nodes": [[["average_pooling2d_118", 0, 0, {}]]]}, {"name": "batch_normalization_1234", "class_name": "BatchNormalization", "config": {"name": "batch_normalization_1234", "trainable": true, "dtype": "float32", "axis": [3], "momentum": 0.99, "epsilon": 0.001, "center": true, "scale": false, "beta_initializer": {"class_name": "Zeros", "config": {"dtype": "float32"}}, "gamma_initializer": {"class_name": "Ones", "config": {"dtype": "float32"}}, "moving_mean_initializer": {"class_name": "Zeros", "config": {"dtype": "float32"}}, "moving_variance_initializer": {"class_name": "Ones", "config": {"dtype": "float32"}}, "beta_regularizer": null, "gamma_regularizer": null, "beta_constraint": null, "gamma_constraint": null}, "inbound_nodes": [[["conv2d_1234", 0, 0, {}]]]}, {"name": "batch_normalization_1236", "class_name": "BatchNormalization", "config": {"name": "batch_normalization_1236", "trainable": true, "dtype": "float32", "axis": [3], "momentum": 0.99, "epsilon": 0.001, "center": true, "scale": false, "beta_initializer": {"class_name": "Zeros", "config": {"dtype": "float32"}}, "gamma_initializer": {"class_name": "Ones", "config": {"dtype": "float32"}}, "moving_mean_initializer": {"class_name": "Zeros", "config": {"dtype": "float32"}}, "moving_variance_initializer": {"class_name": "Ones", "config": {"dtype": "float32"}}, "beta_regularizer": null, "gamma_regularizer": null, "beta_constraint": null, "gamma_constraint": null}, "inbound_nodes": [[["conv2d_1236", 0, 0, {}]]]}, {"name": "batch_normalization_1239", "class_name": "BatchNormalization", "config": {"name": "batch_normalization_1239", "trainable": true, "dtype": "float32", "axis": [3], "momentum": 0.99, "epsilon": 0.001, "center": true, "scale": false, "beta_initializer": {"class_name": "Zeros", "config": {"dtype": "float32"}}, "gamma_initializer": {"class_name": "Ones", "config": {"dtype": "float32"}}, "moving_mean_initializer": {"class_name": "Zeros", "config": {"dtype": "float32"}}, "moving_variance_initializer": {"class_name": "Ones", "config": {"dtype": "float32"}}, "beta_regularizer": null, "gamma_regularizer": null, "beta_constraint": null, "gamma_constraint": null}, "inbound_nodes": [[["conv2d_1239", 0, 0, {}]]]}, {"name": "batch_normalization_1240", "class_name": "BatchNormalization", "config": {"name": "batch_normalization_1240", "trainable": true, "dtype": "float32", "axis": [3], "momentum": 0.99, "epsilon": 0.001, "center": true, "scale": false, "beta_initializer": {"class_name": "Zeros", "config": {"dtype": "float32"}}, "gamma_initializer": {"class_name": "Ones", "config": {"dtype": "float32"}}, "moving_mean_initializer": {"class_name": "Zeros", "config": {"dtype": "float32"}}, "moving_variance_initializer": {"class_name": "Ones", "config": {"dtype": "float32"}}, "beta_regularizer": null, "gamma_regularizer": null, "beta_constraint": null, "gamma_constraint": null}, "inbound_nodes": [[["conv2d_1240", 0, 0, {}]]]}, {"name": "activation_1234", "class_name": "Activation", "config": {"name": "activation_1234", "trainable": true, "dtype": "float32", "activation": "relu"}, "inbound_nodes": [[["batch_normalization_1234", 0, 0, {}]]]}, {"name": "activation_1236", "class_name": "Activation", "config": {"name": "activation_1236", "trainable": true, "dtype": "float32", "activation": "relu"}, "inbound_nodes": [[["batch_normalization_1236", 0, 0, {}]]]}, {"name": "activation_1239", "class_name": "Activation", "config": {"name": "activation_1239", "trainable": true, "dtype": "float32", "activation": "relu"}, "inbound_nodes": [[["batch_normalization_1239", 0, 0, {}]]]}, {"name": "activation_1240", "class_name": "Activation", "config": {"name": "activation_1240", "trainable": true, "dtype": "float32", "activation": "relu"}, "inbound_nodes": [[["batch_normalization_1240", 0, 0, {}]]]}, {"name": "mixed1", "class_name": "Concatenate", "config": {"name": "mixed1", "trainable": true, "dtype": "float32", "axis": 3}, "inbound_nodes": [[["activation_1234", 0, 0, {}], ["activation_1236", 0, 0, {}], ["activation_1239", 0, 0, {}], ["activation_1240", 0, 0, {}]]]}, {"name": "conv2d_1244", "class_name": "Conv2D", "config": {"name": "conv2d_1244", "trainable": true, "dtype": "float32", "filters": 64, "kernel_size": [1, 1], "strides": [1, 1], "padding": "same", "data_format": "channels_last", "dilation_rate": [1, 1], "activation": "linear", "use_bias": false, "kernel_initializer": {"class_name": "GlorotUniform", "config": {"seed": null, "dtype": "float32"}}, "bias_initializer": {"class_name": "Zeros", "config": {"dtype": "float32"}}, "kernel_regularizer": null, "bias_regularizer": null, "activity_regularizer": null, "kernel_constraint": null, "bias_constraint": null}, "inbound_nodes": [[["mixed1", 0, 0, {}]]]}, {"name": "batch_normalization_1244", "class_name": "BatchNormalization", "config": {"name": "batch_normalization_1244", "trainable": true, "dtype": "float32", "axis": [3], "momentum": 0.99, "epsilon": 0.001, "center": true, "scale": false, "beta_initializer": {"class_name": "Zeros", "config": {"dtype": "float32"}}, "gamma_initializer": {"class_name": "Ones", "config": {"dtype": "float32"}}, "moving_mean_initializer": {"class_name": "Zeros", "config": {"dtype": "float32"}}, "moving_variance_initializer": {"class_name": "Ones", "config": {"dtype": "float32"}}, "beta_regularizer": null, "gamma_regularizer": null, "beta_constraint": null, "gamma_constraint": null}, "inbound_nodes": [[["conv2d_1244", 0, 0, {}]]]}, {"name": "activation_1244", "class_name": "Activation", "config": {"name": "activation_1244", "trainable": true, "dtype": "float32", "activation": "relu"}, "inbound_nodes": [[["batch_normalization_1244", 0, 0, {}]]]}, {"name": "conv2d_1242", "class_name": "Conv2D", "config": {"name": "conv2d_1242", "trainable": true, "dtype": "float32", "filters": 48, "kernel_size": [1, 1], "strides": [1, 1], "padding": "same", "data_format": "channels_last", "dilation_rate": [1, 1], "activation": "linear", "use_bias": false, "kernel_initializer": {"class_name": "GlorotUniform", "config": {"seed": null, "dtype": "float32"}}, "bias_initializer": {"class_name": "Zeros", "config": {"dtype": "float32"}}, "kernel_regularizer": null, "bias_regularizer": null, "activity_regularizer": null, "kernel_constraint": null, "bias_constraint": null}, "inbound_nodes": [[["mixed1", 0, 0, {}]]]}, {"name": "conv2d_1245", "class_name": "Conv2D", "config": {"name": "conv2d_1245", "trainable": true, "dtype": "float32", "filters": 96, "kernel_size": [3, 3], "strides": [1, 1], "padding": "same", "data_format": "channels_last", "dilation_rate": [1, 1], "activation": "linear", "use_bias": false, "kernel_initializer": {"class_name": "GlorotUniform", "config": {"seed": null, "dtype": "float32"}}, "bias_initializer": {"class_name": "Zeros", "config": {"dtype": "float32"}}, "kernel_regularizer": null, "bias_regularizer": null, "activity_regularizer": null, "kernel_constraint": null, "bias_constraint": null}, "inbound_nodes": [[["activation_1244", 0, 0, {}]]]}, {"name": "batch_normalization_1242", "class_name": "BatchNormalization", "config": {"name": "batch_normalization_1242", "trainable": true, "dtype": "float32", "axis": [3], "momentum": 0.99, "epsilon": 0.001, "center": true, "scale": false, "beta_initializer": {"class_name": "Zeros", "config": {"dtype": "float32"}}, "gamma_initializer": {"class_name": "Ones", "config": {"dtype": "float32"}}, "moving_mean_initializer": {"class_name": "Zeros", "config": {"dtype": "float32"}}, "moving_variance_initializer": {"class_name": "Ones", "config": {"dtype": "float32"}}, "beta_regularizer": null, "gamma_regularizer": null, "beta_constraint": null, "gamma_constraint": null}, "inbound_nodes": [[["conv2d_1242", 0, 0, {}]]]}, {"name": "batch_normalization_1245", "class_name": "BatchNormalization", "config": {"name": "batch_normalization_1245", "trainable": true, "dtype": "float32", "axis": [3], "momentum": 0.99, "epsilon": 0.001, "center": true, "scale": false, "beta_initializer": {"class_name": "Zeros", "config": {"dtype": "float32"}}, "gamma_initializer": {"class_name": "Ones", "config": {"dtype": "float32"}}, "moving_mean_initializer": {"class_name": "Zeros", "config": {"dtype": "float32"}}, "moving_variance_initializer": {"class_name": "Ones", "config": {"dtype": "float32"}}, "beta_regularizer": null, "gamma_regularizer": null, "beta_constraint": null, "gamma_constraint": null}, "inbound_nodes": [[["conv2d_1245", 0, 0, {}]]]}, {"name": "activation_1242", "class_name": "Activation", "config": {"name": "activation_1242", "trainable": true, "dtype": "float32", "activation": "relu"}, "inbound_nodes": [[["batch_normalization_1242", 0, 0, {}]]]}, {"name": "activation_1245", "class_name": "Activation", "config": {"name": "activation_1245", "trainable": true, "dtype": "float32", "activation": "relu"}, "inbound_nodes": [[["batch_normalization_1245", 0, 0, {}]]]}, {"name": "average_pooling2d_119", "class_name": "AveragePooling2D", "config": {"name": "average_pooling2d_119", "trainable": true, "dtype": "float32", "pool_size": [3, 3], "padding": "same", "strides": [1, 1], "data_format": "channels_last"}, "inbound_nodes": [[["mixed1", 0, 0, {}]]]}, {"name": "conv2d_1241", "class_name": "Conv2D", "config": {"name": "conv2d_1241", "trainable": true, "dtype": "float32", "filters": 64, "kernel_size": [1, 1], "strides": [1, 1], "padding": "same", "data_format": "channels_last", "dilation_rate": [1, 1], "activation": "linear", "use_bias": false, "kernel_initializer": {"class_name": "GlorotUniform", "config": {"seed": null, "dtype": "float32"}}, "bias_initializer": {"class_name": "Zeros", "config": {"dtype": "float32"}}, "kernel_regularizer": null, "bias_regularizer": null, "activity_regularizer": null, "kernel_constraint": null, "bias_constraint": null}, "inbound_nodes": [[["mixed1", 0, 0, {}]]]}, {"name": "conv2d_1243", "class_name": "Conv2D", "config": {"name": "conv2d_1243", "trainable": true, "dtype": "float32", "filters": 64, "kernel_size": [5, 5], "strides": [1, 1], "padding": "same", "data_format": "channels_last", "dilation_rate": [1, 1], "activation": "linear", "use_bias": false, "kernel_initializer": {"class_name": "GlorotUniform", "config": {"seed": null, "dtype": "float32"}}, "bias_initializer": {"class_name": "Zeros", "config": {"dtype": "float32"}}, "kernel_regularizer": null, "bias_regularizer": null, "activity_regularizer": null, "kernel_constraint": null, "bias_constraint": null}, "inbound_nodes": [[["activation_1242", 0, 0, {}]]]}, {"name": "conv2d_1246", "class_name": "Conv2D", "config": {"name": "conv2d_1246", "trainable": true, "dtype": "float32", "filters": 96, "kernel_size": [3, 3], "strides": [1, 1], "padding": "same", "data_format": "channels_last", "dilation_rate": [1, 1], "activation": "linear", "use_bias": false, "kernel_initializer": {"class_name": "GlorotUniform", "config": {"seed": null, "dtype": "float32"}}, "bias_initializer": {"class_name": "Zeros", "config": {"dtype": "float32"}}, "kernel_regularizer": null, "bias_regularizer": null, "activity_regularizer": null, "kernel_constraint": null, "bias_constraint": null}, "inbound_nodes": [[["activation_1245", 0, 0, {}]]]}, {"name": "conv2d_1247", "class_name": "Conv2D", "config": {"name": "conv2d_1247", "trainable": true, "dtype": "float32", "filters": 64, "kernel_size": [1, 1], "strides": [1, 1], "padding": "same", "data_format": "channels_last", "dilation_rate": [1, 1], "activation": "linear", "use_bias": false, "kernel_initializer": {"class_name": "GlorotUniform", "config": {"seed": null, "dtype": "float32"}}, "bias_initializer": {"class_name": "Zeros", "config": {"dtype": "float32"}}, "kernel_regularizer": null, "bias_regularizer": null, "activity_regularizer": null, "kernel_constraint": null, "bias_constraint": null}, "inbound_nodes": [[["average_pooling2d_119", 0, 0, {}]]]}, {"name": "batch_normalization_1241", "class_name": "BatchNormalization", "config": {"name": "batch_normalization_1241", "trainable": true, "dtype": "float32", "axis": [3], "momentum": 0.99, "epsilon": 0.001, "center": true, "scale": false, "beta_initializer": {"class_name": "Zeros", "config": {"dtype": "float32"}}, "gamma_initializer": {"class_name": "Ones", "config": {"dtype": "float32"}}, "moving_mean_initializer": {"class_name": "Zeros", "config": {"dtype": "float32"}}, "moving_variance_initializer": {"class_name": "Ones", "config": {"dtype": "float32"}}, "beta_regularizer": null, "gamma_regularizer": null, "beta_constraint": null, "gamma_constraint": null}, "inbound_nodes": [[["conv2d_1241", 0, 0, {}]]]}, {"name": "batch_normalization_1243", "class_name": "BatchNormalization", "config": {"name": "batch_normalization_1243", "trainable": true, "dtype": "float32", "axis": [3], "momentum": 0.99, "epsilon": 0.001, "center": true, "scale": false, "beta_initializer": {"class_name": "Zeros", "config": {"dtype": "float32"}}, "gamma_initializer": {"class_name": "Ones", "config": {"dtype": "float32"}}, "moving_mean_initializer": {"class_name": "Zeros", "config": {"dtype": "float32"}}, "moving_variance_initializer": {"class_name": "Ones", "config": {"dtype": "float32"}}, "beta_regularizer": null, "gamma_regularizer": null, "beta_constraint": null, "gamma_constraint": null}, "inbound_nodes": [[["conv2d_1243", 0, 0, {}]]]}, {"name": "batch_normalization_1246", "class_name": "BatchNormalization", "config": {"name": "batch_normalization_1246", "trainable": true, "dtype": "float32", "axis": [3], "momentum": 0.99, "epsilon": 0.001, "center": true, "scale": false, "beta_initializer": {"class_name": "Zeros", "config": {"dtype": "float32"}}, "gamma_initializer": {"class_name": "Ones", "config": {"dtype": "float32"}}, "moving_mean_initializer": {"class_name": "Zeros", "config": {"dtype": "float32"}}, "moving_variance_initializer": {"class_name": "Ones", "config": {"dtype": "float32"}}, "beta_regularizer": null, "gamma_regularizer": null, "beta_constraint": null, "gamma_constraint": null}, "inbound_nodes": [[["conv2d_1246", 0, 0, {}]]]}, {"name": "batch_normalization_1247", "class_name": "BatchNormalization", "config": {"name": "batch_normalization_1247", "trainable": true, "dtype": "float32", "axis": [3], "momentum": 0.99, "epsilon": 0.001, "center": true, "scale": false, "beta_initializer": {"class_name": "Zeros", "config": {"dtype": "float32"}}, "gamma_initializer": {"class_name": "Ones", "config": {"dtype": "float32"}}, "moving_mean_initializer": {"class_name": "Zeros", "config": {"dtype": "float32"}}, "moving_variance_initializer": {"class_name": "Ones", "config": {"dtype": "float32"}}, "beta_regularizer": null, "gamma_regularizer": null, "beta_constraint": null, "gamma_constraint": null}, "inbound_nodes": [[["conv2d_1247", 0, 0, {}]]]}, {"name": "activation_1241", "class_name": "Activation", "config": {"name": "activation_1241", "trainable": true, "dtype": "float32", "activation": "relu"}, "inbound_nodes": [[["batch_normalization_1241", 0, 0, {}]]]}, {"name": "activation_1243", "class_name": "Activation", "config": {"name": "activation_1243", "trainable": true, "dtype": "float32", "activation": "relu"}, "inbound_nodes": [[["batch_normalization_1243", 0, 0, {}]]]}, {"name": "activation_1246", "class_name": "Activation", "config": {"name": "activation_1246", "trainable": true, "dtype": "float32", "activation": "relu"}, "inbound_nodes": [[["batch_normalization_1246", 0, 0, {}]]]}, {"name": "activation_1247", "class_name": "Activation", "config": {"name": "activation_1247", "trainable": true, "dtype": "float32", "activation": "relu"}, "inbound_nodes": [[["batch_normalization_1247", 0, 0, {}]]]}, {"name": "mixed2", "class_name": "Concatenate", "config": {"name": "mixed2", "trainable": true, "dtype": "float32", "axis": 3}, "inbound_nodes": [[["activation_1241", 0, 0, {}], ["activation_1243", 0, 0, {}], ["activation_1246", 0, 0, {}], ["activation_1247", 0, 0, {}]]]}, {"name": "conv2d_1249", "class_name": "Conv2D", "config": {"name": "conv2d_1249", "trainable": true, "dtype": "float32", "filters": 64, "kernel_size": [1, 1], "strides": [1, 1], "padding": "same", "data_format": "channels_last", "dilation_rate": [1, 1], "activation": "linear", "use_bias": false, "kernel_initializer": {"class_name": "GlorotUniform", "config": {"seed": null, "dtype": "float32"}}, "bias_initializer": {"class_name": "Zeros", "config": {"dtype": "float32"}}, "kernel_regularizer": null, "bias_regularizer": null, "activity_regularizer": null, "kernel_constraint": null, "bias_constraint": null}, "inbound_nodes": [[["mixed2", 0, 0, {}]]]}, {"name": "batch_normalization_1249", "class_name": "BatchNormalization", "config": {"name": "batch_normalization_1249", "trainable": true, "dtype": "float32", "axis": [3], "momentum": 0.99, "epsilon": 0.001, "center": true, "scale": false, "beta_initializer": {"class_name": "Zeros", "config": {"dtype": "float32"}}, "gamma_initializer": {"class_name": "Ones", "config": {"dtype": "float32"}}, "moving_mean_initializer": {"class_name": "Zeros", "config": {"dtype": "float32"}}, "moving_variance_initializer": {"class_name": "Ones", "config": {"dtype": "float32"}}, "beta_regularizer": null, "gamma_regularizer": null, "beta_constraint": null, "gamma_constraint": null}, "inbound_nodes": [[["conv2d_1249", 0, 0, {}]]]}, {"name": "activation_1249", "class_name": "Activation", "config": {"name": "activation_1249", "trainable": true, "dtype": "float32", "activation": "relu"}, "inbound_nodes": [[["batch_normalization_1249", 0, 0, {}]]]}, {"name": "conv2d_1250", "class_name": "Conv2D", "config": {"name": "conv2d_1250", "trainable": true, "dtype": "float32", "filters": 96, "kernel_size": [3, 3], "strides": [1, 1], "padding": "same", "data_format": "channels_last", "dilation_rate": [1, 1], "activation": "linear", "use_bias": false, "kernel_initializer": {"class_name": "GlorotUniform", "config": {"seed": null, "dtype": "float32"}}, "bias_initializer": {"class_name": "Zeros", "config": {"dtype": "float32"}}, "kernel_regularizer": null, "bias_regularizer": null, "activity_regularizer": null, "kernel_constraint": null, "bias_constraint": null}, "inbound_nodes": [[["activation_1249", 0, 0, {}]]]}, {"name": "batch_normalization_1250", "class_name": "BatchNormalization", "config": {"name": "batch_normalization_1250", "trainable": true, "dtype": "float32", "axis": [3], "momentum": 0.99, "epsilon": 0.001, "center": true, "scale": false, "beta_initializer": {"class_name": "Zeros", "config": {"dtype": "float32"}}, "gamma_initializer": {"class_name": "Ones", "config": {"dtype": "float32"}}, "moving_mean_initializer": {"class_name": "Zeros", "config": {"dtype": "float32"}}, "moving_variance_initializer": {"class_name": "Ones", "config": {"dtype": "float32"}}, "beta_regularizer": null, "gamma_regularizer": null, "beta_constraint": null, "gamma_constraint": null}, "inbound_nodes": [[["conv2d_1250", 0, 0, {}]]]}, {"name": "activation_1250", "class_name": "Activation", "config": {"name": "activation_1250", "trainable": true, "dtype": "float32", "activation": "relu"}, "inbound_nodes": [[["batch_normalization_1250", 0, 0, {}]]]}, {"name": "conv2d_1248", "class_name": "Conv2D", "config": {"name": "conv2d_1248", "trainable": true, "dtype": "float32", "filters": 384, "kernel_size": [3, 3], "strides": [2, 2], "padding": "valid", "data_format": "channels_last", "dilation_rate": [1, 1], "activation": "linear", "use_bias": false, "kernel_initializer": {"class_name": "GlorotUniform", "config": {"seed": null, "dtype": "float32"}}, "bias_initializer": {"class_name": "Zeros", "config": {"dtype": "float32"}}, "kernel_regularizer": null, "bias_regularizer": null, "activity_regularizer": null, "kernel_constraint": null, "bias_constraint": null}, "inbound_nodes": [[["mixed2", 0, 0, {}]]]}, {"name": "conv2d_1251", "class_name": "Conv2D", "config": {"name": "conv2d_1251", "trainable": true, "dtype": "float32", "filters": 96, "kernel_size": [3, 3], "strides": [2, 2], "padding": "valid", "data_format": "channels_last", "dilation_rate": [1, 1], "activation": "linear", "use_bias": false, "kernel_initializer": {"class_name": "GlorotUniform", "config": {"seed": null, "dtype": "float32"}}, "bias_initializer": {"class_name": "Zeros", "config": {"dtype": "float32"}}, "kernel_regularizer": null, "bias_regularizer": null, "activity_regularizer": null, "kernel_constraint": null, "bias_constraint": null}, "inbound_nodes": [[["activation_1250", 0, 0, {}]]]}, {"name": "batch_normalization_1248", "class_name": "BatchNormalization", "config": {"name": "batch_normalization_1248", "trainable": true, "dtype": "float32", "axis": [3], "momentum": 0.99, "epsilon": 0.001, "center": true, "scale": false, "beta_initializer": {"class_name": "Zeros", "config": {"dtype": "float32"}}, "gamma_initializer": {"class_name": "Ones", "config": {"dtype": "float32"}}, "moving_mean_initializer": {"class_name": "Zeros", "config": {"dtype": "float32"}}, "moving_variance_initializer": {"class_name": "Ones", "config": {"dtype": "float32"}}, "beta_regularizer": null, "gamma_regularizer": null, "beta_constraint": null, "gamma_constraint": null}, "inbound_nodes": [[["conv2d_1248", 0, 0, {}]]]}, {"name": "batch_normalization_1251", "class_name": "BatchNormalization", "config": {"name": "batch_normalization_1251", "trainable": true, "dtype": "float32", "axis": [3], "momentum": 0.99, "epsilon": 0.001, "center": true, "scale": false, "beta_initializer": {"class_name": "Zeros", "config": {"dtype": "float32"}}, "gamma_initializer": {"class_name": "Ones", "config": {"dtype": "float32"}}, "moving_mean_initializer": {"class_name": "Zeros", "config": {"dtype": "float32"}}, "moving_variance_initializer": {"class_name": "Ones", "config": {"dtype": "float32"}}, "beta_regularizer": null, "gamma_regularizer": null, "beta_constraint": null, "gamma_constraint": null}, "inbound_nodes": [[["conv2d_1251", 0, 0, {}]]]}, {"name": "activation_1248", "class_name": "Activation", "config": {"name": "activation_1248", "trainable": true, "dtype": "float32", "activation": "relu"}, "inbound_nodes": [[["batch_normalization_1248", 0, 0, {}]]]}, {"name": "activation_1251", "class_name": "Activation", "config": {"name": "activation_1251", "trainable": true, "dtype": "float32", "activation": "relu"}, "inbound_nodes": [[["batch_normalization_1251", 0, 0, {}]]]}, {"name": "max_pooling2d_54", "class_name": "MaxPooling2D", "config": {"name": "max_pooling2d_54", "trainable": true, "dtype": "float32", "pool_size": [3, 3], "padding": "valid", "strides": [2, 2], "data_format": "channels_last"}, "inbound_nodes": [[["mixed2", 0, 0, {}]]]}, {"name": "mixed3", "class_name": "Concatenate", "config": {"name": "mixed3", "trainable": true, "dtype": "float32", "axis": 3}, "inbound_nodes": [[["activation_1248", 0, 0, {}], ["activation_1251", 0, 0, {}], ["max_pooling2d_54", 0, 0, {}]]]}, {"name": "conv2d_1256", "class_name": "Conv2D", "config": {"name": "conv2d_1256", "trainable": true, "dtype": "float32", "filters": 128, "kernel_size": [1, 1], "strides": [1, 1], "padding": "same", "data_format": "channels_last", "dilation_rate": [1, 1], "activation": "linear", "use_bias": false, "kernel_initializer": {"class_name": "GlorotUniform", "config": {"seed": null, "dtype": "float32"}}, "bias_initializer": {"class_name": "Zeros", "config": {"dtype": "float32"}}, "kernel_regularizer": null, "bias_regularizer": null, "activity_regularizer": null, "kernel_constraint": null, "bias_constraint": null}, "inbound_nodes": [[["mixed3", 0, 0, {}]]]}, {"name": "batch_normalization_1256", "class_name": "BatchNormalization", "config": {"name": "batch_normalization_1256", "trainable": true, "dtype": "float32", "axis": [3], "momentum": 0.99, "epsilon": 0.001, "center": true, "scale": false, "beta_initializer": {"class_name": "Zeros", "config": {"dtype": "float32"}}, "gamma_initializer": {"class_name": "Ones", "config": {"dtype": "float32"}}, "moving_mean_initializer": {"class_name": "Zeros", "config": {"dtype": "float32"}}, "moving_variance_initializer": {"class_name": "Ones", "config": {"dtype": "float32"}}, "beta_regularizer": null, "gamma_regularizer": null, "beta_constraint": null, "gamma_constraint": null}, "inbound_nodes": [[["conv2d_1256", 0, 0, {}]]]}, {"name": "activation_1256", "class_name": "Activation", "config": {"name": "activation_1256", "trainable": true, "dtype": "float32", "activation": "relu"}, "inbound_nodes": [[["batch_normalization_1256", 0, 0, {}]]]}, {"name": "conv2d_1257", "class_name": "Conv2D", "config": {"name": "conv2d_1257", "trainable": true, "dtype": "float32", "filters": 128, "kernel_size": [7, 1], "strides": [1, 1], "padding": "same", "data_format": "channels_last", "dilation_rate": [1, 1], "activation": "linear", "use_bias": false, "kernel_initializer": {"class_name": "GlorotUniform", "config": {"seed": null, "dtype": "float32"}}, "bias_initializer": {"class_name": "Zeros", "config": {"dtype": "float32"}}, "kernel_regularizer": null, "bias_regularizer": null, "activity_regularizer": null, "kernel_constraint": null, "bias_constraint": null}, "inbound_nodes": [[["activation_1256", 0, 0, {}]]]}, {"name": "batch_normalization_1257", "class_name": "BatchNormalization", "config": {"name": "batch_normalization_1257", "trainable": true, "dtype": "float32", "axis": [3], "momentum": 0.99, "epsilon": 0.001, "center": true, "scale": false, "beta_initializer": {"class_name": "Zeros", "config": {"dtype": "float32"}}, "gamma_initializer": {"class_name": "Ones", "config": {"dtype": "float32"}}, "moving_mean_initializer": {"class_name": "Zeros", "config": {"dtype": "float32"}}, "moving_variance_initializer": {"class_name": "Ones", "config": {"dtype": "float32"}}, "beta_regularizer": null, "gamma_regularizer": null, "beta_constraint": null, "gamma_constraint": null}, "inbound_nodes": [[["conv2d_1257", 0, 0, {}]]]}, {"name": "activation_1257", "class_name": "Activation", "config": {"name": "activation_1257", "trainable": true, "dtype": "float32", "activation": "relu"}, "inbound_nodes": [[["batch_normalization_1257", 0, 0, {}]]]}, {"name": "conv2d_1253", "class_name": "Conv2D", "config": {"name": "conv2d_1253", "trainable": true, "dtype": "float32", "filters": 128, "kernel_size": [1, 1], "strides": [1, 1], "padding": "same", "data_format": "channels_last", "dilation_rate": [1, 1], "activation": "linear", "use_bias": false, "kernel_initializer": {"class_name": "GlorotUniform", "config": {"seed": null, "dtype": "float32"}}, "bias_initializer": {"class_name": "Zeros", "config": {"dtype": "float32"}}, "kernel_regularizer": null, "bias_regularizer": null, "activity_regularizer": null, "kernel_constraint": null, "bias_constraint": null}, "inbound_nodes": [[["mixed3", 0, 0, {}]]]}, {"name": "conv2d_1258", "class_name": "Conv2D", "config": {"name": "conv2d_1258", "trainable": true, "dtype": "float32", "filters": 128, "kernel_size": [1, 7], "strides": [1, 1], "padding": "same", "data_format": "channels_last", "dilation_rate": [1, 1], "activation": "linear", "use_bias": false, "kernel_initializer": {"class_name": "GlorotUniform", "config": {"seed": null, "dtype": "float32"}}, "bias_initializer": {"class_name": "Zeros", "config": {"dtype": "float32"}}, "kernel_regularizer": null, "bias_regularizer": null, "activity_regularizer": null, "kernel_constraint": null, "bias_constraint": null}, "inbound_nodes": [[["activation_1257", 0, 0, {}]]]}, {"name": "batch_normalization_1253", "class_name": "BatchNormalization", "config": {"name": "batch_normalization_1253", "trainable": true, "dtype": "float32", "axis": [3], "momentum": 0.99, "epsilon": 0.001, "center": true, "scale": false, "beta_initializer": {"class_name": "Zeros", "config": {"dtype": "float32"}}, "gamma_initializer": {"class_name": "Ones", "config": {"dtype": "float32"}}, "moving_mean_initializer": {"class_name": "Zeros", "config": {"dtype": "float32"}}, "moving_variance_initializer": {"class_name": "Ones", "config": {"dtype": "float32"}}, "beta_regularizer": null, "gamma_regularizer": null, "beta_constraint": null, "gamma_constraint": null}, "inbound_nodes": [[["conv2d_1253", 0, 0, {}]]]}, {"name": "batch_normalization_1258", "class_name": "BatchNormalization", "config": {"name": "batch_normalization_1258", "trainable": true, "dtype": "float32", "axis": [3], "momentum": 0.99, "epsilon": 0.001, "center": true, "scale": false, "beta_initializer": {"class_name": "Zeros", "config": {"dtype": "float32"}}, "gamma_initializer": {"class_name": "Ones", "config": {"dtype": "float32"}}, "moving_mean_initializer": {"class_name": "Zeros", "config": {"dtype": "float32"}}, "moving_variance_initializer": {"class_name": "Ones", "config": {"dtype": "float32"}}, "beta_regularizer": null, "gamma_regularizer": null, "beta_constraint": null, "gamma_constraint": null}, "inbound_nodes": [[["conv2d_1258", 0, 0, {}]]]}, {"name": "activation_1253", "class_name": "Activation", "config": {"name": "activation_1253", "trainable": true, "dtype": "float32", "activation": "relu"}, "inbound_nodes": [[["batch_normalization_1253", 0, 0, {}]]]}, {"name": "activation_1258", "class_name": "Activation", "config": {"name": "activation_1258", "trainable": true, "dtype": "float32", "activation": "relu"}, "inbound_nodes": [[["batch_normalization_1258", 0, 0, {}]]]}, {"name": "conv2d_1254", "class_name": "Conv2D", "config": {"name": "conv2d_1254", "trainable": true, "dtype": "float32", "filters": 128, "kernel_size": [1, 7], "strides": [1, 1], "padding": "same", "data_format": "channels_last", "dilation_rate": [1, 1], "activation": "linear", "use_bias": false, "kernel_initializer": {"class_name": "GlorotUniform", "config": {"seed": null, "dtype": "float32"}}, "bias_initializer": {"class_name": "Zeros", "config": {"dtype": "float32"}}, "kernel_regularizer": null, "bias_regularizer": null, "activity_regularizer": null, "kernel_constraint": null, "bias_constraint": null}, "inbound_nodes": [[["activation_1253", 0, 0, {}]]]}, {"name": "conv2d_1259", "class_name": "Conv2D", "config": {"name": "conv2d_1259", "trainable": true, "dtype": "float32", "filters": 128, "kernel_size": [7, 1], "strides": [1, 1], "padding": "same", "data_format": "channels_last", "dilation_rate": [1, 1], "activation": "linear", "use_bias": false, "kernel_initializer": {"class_name": "GlorotUniform", "config": {"seed": null, "dtype": "float32"}}, "bias_initializer": {"class_name": "Zeros", "config": {"dtype": "float32"}}, "kernel_regularizer": null, "bias_regularizer": null, "activity_regularizer": null, "kernel_constraint": null, "bias_constraint": null}, "inbound_nodes": [[["activation_1258", 0, 0, {}]]]}, {"name": "batch_normalization_1254", "class_name": "BatchNormalization", "config": {"name": "batch_normalization_1254", "trainable": true, "dtype": "float32", "axis": [3], "momentum": 0.99, "epsilon": 0.001, "center": true, "scale": false, "beta_initializer": {"class_name": "Zeros", "config": {"dtype": "float32"}}, "gamma_initializer": {"class_name": "Ones", "config": {"dtype": "float32"}}, "moving_mean_initializer": {"class_name": "Zeros", "config": {"dtype": "float32"}}, "moving_variance_initializer": {"class_name": "Ones", "config": {"dtype": "float32"}}, "beta_regularizer": null, "gamma_regularizer": null, "beta_constraint": null, "gamma_constraint": null}, "inbound_nodes": [[["conv2d_1254", 0, 0, {}]]]}, {"name": "batch_normalization_1259", "class_name": "BatchNormalization", "config": {"name": "batch_normalization_1259", "trainable": true, "dtype": "float32", "axis": [3], "momentum": 0.99, "epsilon": 0.001, "center": true, "scale": false, "beta_initializer": {"class_name": "Zeros", "config": {"dtype": "float32"}}, "gamma_initializer": {"class_name": "Ones", "config": {"dtype": "float32"}}, "moving_mean_initializer": {"class_name": "Zeros", "config": {"dtype": "float32"}}, "moving_variance_initializer": {"class_name": "Ones", "config": {"dtype": "float32"}}, "beta_regularizer": null, "gamma_regularizer": null, "beta_constraint": null, "gamma_constraint": null}, "inbound_nodes": [[["conv2d_1259", 0, 0, {}]]]}, {"name": "activation_1254", "class_name": "Activation", "config": {"name": "activation_1254", "trainable": true, "dtype": "float32", "activation": "relu"}, "inbound_nodes": [[["batch_normalization_1254", 0, 0, {}]]]}, {"name": "activation_1259", "class_name": "Activation", "config": {"name": "activation_1259", "trainable": true, "dtype": "float32", "activation": "relu"}, "inbound_nodes": [[["batch_normalization_1259", 0, 0, {}]]]}, {"name": "average_pooling2d_120", "class_name": "AveragePooling2D", "config": {"name": "average_pooling2d_120", "trainable": true, "dtype": "float32", "pool_size": [3, 3], "padding": "same", "strides": [1, 1], "data_format": "channels_last"}, "inbound_nodes": [[["mixed3", 0, 0, {}]]]}, {"name": "conv2d_1252", "class_name": "Conv2D", "config": {"name": "conv2d_1252", "trainable": true, "dtype": "float32", "filters": 192, "kernel_size": [1, 1], "strides": [1, 1], "padding": "same", "data_format": "channels_last", "dilation_rate": [1, 1], "activation": "linear", "use_bias": false, "kernel_initializer": {"class_name": "GlorotUniform", "config": {"seed": null, "dtype": "float32"}}, "bias_initializer": {"class_name": "Zeros", "config": {"dtype": "float32"}}, "kernel_regularizer": null, "bias_regularizer": null, "activity_regularizer": null, "kernel_constraint": null, "bias_constraint": null}, "inbound_nodes": [[["mixed3", 0, 0, {}]]]}, {"name": "conv2d_1255", "class_name": "Conv2D", "config": {"name": "conv2d_1255", "trainable": true, "dtype": "float32", "filters": 192, "kernel_size": [7, 1], "strides": [1, 1], "padding": "same", "data_format": "channels_last", "dilation_rate": [1, 1], "activation": "linear", "use_bias": false, "kernel_initializer": {"class_name": "GlorotUniform", "config": {"seed": null, "dtype": "float32"}}, "bias_initializer": {"class_name": "Zeros", "config": {"dtype": "float32"}}, "kernel_regularizer": null, "bias_regularizer": null, "activity_regularizer": null, "kernel_constraint": null, "bias_constraint": null}, "inbound_nodes": [[["activation_1254", 0, 0, {}]]]}, {"name": "conv2d_1260", "class_name": "Conv2D", "config": {"name": "conv2d_1260", "trainable": true, "dtype": "float32", "filters": 192, "kernel_size": [1, 7], "strides": [1, 1], "padding": "same", "data_format": "channels_last", "dilation_rate": [1, 1], "activation": "linear", "use_bias": false, "kernel_initializer": {"class_name": "GlorotUniform", "config": {"seed": null, "dtype": "float32"}}, "bias_initializer": {"class_name": "Zeros", "config": {"dtype": "float32"}}, "kernel_regularizer": null, "bias_regularizer": null, "activity_regularizer": null, "kernel_constraint": null, "bias_constraint": null}, "inbound_nodes": [[["activation_1259", 0, 0, {}]]]}, {"name": "conv2d_1261", "class_name": "Conv2D", "config": {"name": "conv2d_1261", "trainable": true, "dtype": "float32", "filters": 192, "kernel_size": [1, 1], "strides": [1, 1], "padding": "same", "data_format": "channels_last", "dilation_rate": [1, 1], "activation": "linear", "use_bias": false, "kernel_initializer": {"class_name": "GlorotUniform", "config": {"seed": null, "dtype": "float32"}}, "bias_initializer": {"class_name": "Zeros", "config": {"dtype": "float32"}}, "kernel_regularizer": null, "bias_regularizer": null, "activity_regularizer": null, "kernel_constraint": null, "bias_constraint": null}, "inbound_nodes": [[["average_pooling2d_120", 0, 0, {}]]]}, {"name": "batch_normalization_1252", "class_name": "BatchNormalization", "config": {"name": "batch_normalization_1252", "trainable": true, "dtype": "float32", "axis": [3], "momentum": 0.99, "epsilon": 0.001, "center": true, "scale": false, "beta_initializer": {"class_name": "Zeros", "config": {"dtype": "float32"}}, "gamma_initializer": {"class_name": "Ones", "config": {"dtype": "float32"}}, "moving_mean_initializer": {"class_name": "Zeros", "config": {"dtype": "float32"}}, "moving_variance_initializer": {"class_name": "Ones", "config": {"dtype": "float32"}}, "beta_regularizer": null, "gamma_regularizer": null, "beta_constraint": null, "gamma_constraint": null}, "inbound_nodes": [[["conv2d_1252", 0, 0, {}]]]}, {"name": "batch_normalization_1255", "class_name": "BatchNormalization", "config": {"name": "batch_normalization_1255", "trainable": true, "dtype": "float32", "axis": [3], "momentum": 0.99, "epsilon": 0.001, "center": true, "scale": false, "beta_initializer": {"class_name": "Zeros", "config": {"dtype": "float32"}}, "gamma_initializer": {"class_name": "Ones", "config": {"dtype": "float32"}}, "moving_mean_initializer": {"class_name": "Zeros", "config": {"dtype": "float32"}}, "moving_variance_initializer": {"class_name": "Ones", "config": {"dtype": "float32"}}, "beta_regularizer": null, "gamma_regularizer": null, "beta_constraint": null, "gamma_constraint": null}, "inbound_nodes": [[["conv2d_1255", 0, 0, {}]]]}, {"name": "batch_normalization_1260", "class_name": "BatchNormalization", "config": {"name": "batch_normalization_1260", "trainable": true, "dtype": "float32", "axis": [3], "momentum": 0.99, "epsilon": 0.001, "center": true, "scale": false, "beta_initializer": {"class_name": "Zeros", "config": {"dtype": "float32"}}, "gamma_initializer": {"class_name": "Ones", "config": {"dtype": "float32"}}, "moving_mean_initializer": {"class_name": "Zeros", "config": {"dtype": "float32"}}, "moving_variance_initializer": {"class_name": "Ones", "config": {"dtype": "float32"}}, "beta_regularizer": null, "gamma_regularizer": null, "beta_constraint": null, "gamma_constraint": null}, "inbound_nodes": [[["conv2d_1260", 0, 0, {}]]]}, {"name": "batch_normalization_1261", "class_name": "BatchNormalization", "config": {"name": "batch_normalization_1261", "trainable": true, "dtype": "float32", "axis": [3], "momentum": 0.99, "epsilon": 0.001, "center": true, "scale": false, "beta_initializer": {"class_name": "Zeros", "config": {"dtype": "float32"}}, "gamma_initializer": {"class_name": "Ones", "config": {"dtype": "float32"}}, "moving_mean_initializer": {"class_name": "Zeros", "config": {"dtype": "float32"}}, "moving_variance_initializer": {"class_name": "Ones", "config": {"dtype": "float32"}}, "beta_regularizer": null, "gamma_regularizer": null, "beta_constraint": null, "gamma_constraint": null}, "inbound_nodes": [[["conv2d_1261", 0, 0, {}]]]}, {"name": "activation_1252", "class_name": "Activation", "config": {"name": "activation_1252", "trainable": true, "dtype": "float32", "activation": "relu"}, "inbound_nodes": [[["batch_normalization_1252", 0, 0, {}]]]}, {"name": "activation_1255", "class_name": "Activation", "config": {"name": "activation_1255", "trainable": true, "dtype": "float32", "activation": "relu"}, "inbound_nodes": [[["batch_normalization_1255", 0, 0, {}]]]}, {"name": "activation_1260", "class_name": "Activation", "config": {"name": "activation_1260", "trainable": true, "dtype": "float32", "activation": "relu"}, "inbound_nodes": [[["batch_normalization_1260", 0, 0, {}]]]}, {"name": "activation_1261", "class_name": "Activation", "config": {"name": "activation_1261", "trainable": true, "dtype": "float32", "activation": "relu"}, "inbound_nodes": [[["batch_normalization_1261", 0, 0, {}]]]}, {"name": "mixed4", "class_name": "Concatenate", "config": {"name": "mixed4", "trainable": true, "dtype": "float32", "axis": 3}, "inbound_nodes": [[["activation_1252", 0, 0, {}], ["activation_1255", 0, 0, {}], ["activation_1260", 0, 0, {}], ["activation_1261", 0, 0, {}]]]}, {"name": "conv2d_1266", "class_name": "Conv2D", "config": {"name": "conv2d_1266", "trainable": true, "dtype": "float32", "filters": 160, "kernel_size": [1, 1], "strides": [1, 1], "padding": "same", "data_format": "channels_last", "dilation_rate": [1, 1], "activation": "linear", "use_bias": false, "kernel_initializer": {"class_name": "GlorotUniform", "config": {"seed": null, "dtype": "float32"}}, "bias_initializer": {"class_name": "Zeros", "config": {"dtype": "float32"}}, "kernel_regularizer": null, "bias_regularizer": null, "activity_regularizer": null, "kernel_constraint": null, "bias_constraint": null}, "inbound_nodes": [[["mixed4", 0, 0, {}]]]}, {"name": "batch_normalization_1266", "class_name": "BatchNormalization", "config": {"name": "batch_normalization_1266", "trainable": true, "dtype": "float32", "axis": [3], "momentum": 0.99, "epsilon": 0.001, "center": true, "scale": false, "beta_initializer": {"class_name": "Zeros", "config": {"dtype": "float32"}}, "gamma_initializer": {"class_name": "Ones", "config": {"dtype": "float32"}}, "moving_mean_initializer": {"class_name": "Zeros", "config": {"dtype": "float32"}}, "moving_variance_initializer": {"class_name": "Ones", "config": {"dtype": "float32"}}, "beta_regularizer": null, "gamma_regularizer": null, "beta_constraint": null, "gamma_constraint": null}, "inbound_nodes": [[["conv2d_1266", 0, 0, {}]]]}, {"name": "activation_1266", "class_name": "Activation", "config": {"name": "activation_1266", "trainable": true, "dtype": "float32", "activation": "relu"}, "inbound_nodes": [[["batch_normalization_1266", 0, 0, {}]]]}, {"name": "conv2d_1267", "class_name": "Conv2D", "config": {"name": "conv2d_1267", "trainable": true, "dtype": "float32", "filters": 160, "kernel_size": [7, 1], "strides": [1, 1], "padding": "same", "data_format": "channels_last", "dilation_rate": [1, 1], "activation": "linear", "use_bias": false, "kernel_initializer": {"class_name": "GlorotUniform", "config": {"seed": null, "dtype": "float32"}}, "bias_initializer": {"class_name": "Zeros", "config": {"dtype": "float32"}}, "kernel_regularizer": null, "bias_regularizer": null, "activity_regularizer": null, "kernel_constraint": null, "bias_constraint": null}, "inbound_nodes": [[["activation_1266", 0, 0, {}]]]}, {"name": "batch_normalization_1267", "class_name": "BatchNormalization", "config": {"name": "batch_normalization_1267", "trainable": true, "dtype": "float32", "axis": [3], "momentum": 0.99, "epsilon": 0.001, "center": true, "scale": false, "beta_initializer": {"class_name": "Zeros", "config": {"dtype": "float32"}}, "gamma_initializer": {"class_name": "Ones", "config": {"dtype": "float32"}}, "moving_mean_initializer": {"class_name": "Zeros", "config": {"dtype": "float32"}}, "moving_variance_initializer": {"class_name": "Ones", "config": {"dtype": "float32"}}, "beta_regularizer": null, "gamma_regularizer": null, "beta_constraint": null, "gamma_constraint": null}, "inbound_nodes": [[["conv2d_1267", 0, 0, {}]]]}, {"name": "activation_1267", "class_name": "Activation", "config": {"name": "activation_1267", "trainable": true, "dtype": "float32", "activation": "relu"}, "inbound_nodes": [[["batch_normalization_1267", 0, 0, {}]]]}, {"name": "conv2d_1263", "class_name": "Conv2D", "config": {"name": "conv2d_1263", "trainable": true, "dtype": "float32", "filters": 160, "kernel_size": [1, 1], "strides": [1, 1], "padding": "same", "data_format": "channels_last", "dilation_rate": [1, 1], "activation": "linear", "use_bias": false, "kernel_initializer": {"class_name": "GlorotUniform", "config": {"seed": null, "dtype": "float32"}}, "bias_initializer": {"class_name": "Zeros", "config": {"dtype": "float32"}}, "kernel_regularizer": null, "bias_regularizer": null, "activity_regularizer": null, "kernel_constraint": null, "bias_constraint": null}, "inbound_nodes": [[["mixed4", 0, 0, {}]]]}, {"name": "conv2d_1268", "class_name": "Conv2D", "config": {"name": "conv2d_1268", "trainable": true, "dtype": "float32", "filters": 160, "kernel_size": [1, 7], "strides": [1, 1], "padding": "same", "data_format": "channels_last", "dilation_rate": [1, 1], "activation": "linear", "use_bias": false, "kernel_initializer": {"class_name": "GlorotUniform", "config": {"seed": null, "dtype": "float32"}}, "bias_initializer": {"class_name": "Zeros", "config": {"dtype": "float32"}}, "kernel_regularizer": null, "bias_regularizer": null, "activity_regularizer": null, "kernel_constraint": null, "bias_constraint": null}, "inbound_nodes": [[["activation_1267", 0, 0, {}]]]}, {"name": "batch_normalization_1263", "class_name": "BatchNormalization", "config": {"name": "batch_normalization_1263", "trainable": true, "dtype": "float32", "axis": [3], "momentum": 0.99, "epsilon": 0.001, "center": true, "scale": false, "beta_initializer": {"class_name": "Zeros", "config": {"dtype": "float32"}}, "gamma_initializer": {"class_name": "Ones", "config": {"dtype": "float32"}}, "moving_mean_initializer": {"class_name": "Zeros", "config": {"dtype": "float32"}}, "moving_variance_initializer": {"class_name": "Ones", "config": {"dtype": "float32"}}, "beta_regularizer": null, "gamma_regularizer": null, "beta_constraint": null, "gamma_constraint": null}, "inbound_nodes": [[["conv2d_1263", 0, 0, {}]]]}, {"name": "batch_normalization_1268", "class_name": "BatchNormalization", "config": {"name": "batch_normalization_1268", "trainable": true, "dtype": "float32", "axis": [3], "momentum": 0.99, "epsilon": 0.001, "center": true, "scale": false, "beta_initializer": {"class_name": "Zeros", "config": {"dtype": "float32"}}, "gamma_initializer": {"class_name": "Ones", "config": {"dtype": "float32"}}, "moving_mean_initializer": {"class_name": "Zeros", "config": {"dtype": "float32"}}, "moving_variance_initializer": {"class_name": "Ones", "config": {"dtype": "float32"}}, "beta_regularizer": null, "gamma_regularizer": null, "beta_constraint": null, "gamma_constraint": null}, "inbound_nodes": [[["conv2d_1268", 0, 0, {}]]]}, {"name": "activation_1263", "class_name": "Activation", "config": {"name": "activation_1263", "trainable": true, "dtype": "float32", "activation": "relu"}, "inbound_nodes": [[["batch_normalization_1263", 0, 0, {}]]]}, {"name": "activation_1268", "class_name": "Activation", "config": {"name": "activation_1268", "trainable": true, "dtype": "float32", "activation": "relu"}, "inbound_nodes": [[["batch_normalization_1268", 0, 0, {}]]]}, {"name": "conv2d_1264", "class_name": "Conv2D", "config": {"name": "conv2d_1264", "trainable": true, "dtype": "float32", "filters": 160, "kernel_size": [1, 7], "strides": [1, 1], "padding": "same", "data_format": "channels_last", "dilation_rate": [1, 1], "activation": "linear", "use_bias": false, "kernel_initializer": {"class_name": "GlorotUniform", "config": {"seed": null, "dtype": "float32"}}, "bias_initializer": {"class_name": "Zeros", "config": {"dtype": "float32"}}, "kernel_regularizer": null, "bias_regularizer": null, "activity_regularizer": null, "kernel_constraint": null, "bias_constraint": null}, "inbound_nodes": [[["activation_1263", 0, 0, {}]]]}, {"name": "conv2d_1269", "class_name": "Conv2D", "config": {"name": "conv2d_1269", "trainable": true, "dtype": "float32", "filters": 160, "kernel_size": [7, 1], "strides": [1, 1], "padding": "same", "data_format": "channels_last", "dilation_rate": [1, 1], "activation": "linear", "use_bias": false, "kernel_initializer": {"class_name": "GlorotUniform", "config": {"seed": null, "dtype": "float32"}}, "bias_initializer": {"class_name": "Zeros", "config": {"dtype": "float32"}}, "kernel_regularizer": null, "bias_regularizer": null, "activity_regularizer": null, "kernel_constraint": null, "bias_constraint": null}, "inbound_nodes": [[["activation_1268", 0, 0, {}]]]}, {"name": "batch_normalization_1264", "class_name": "BatchNormalization", "config": {"name": "batch_normalization_1264", "trainable": true, "dtype": "float32", "axis": [3], "momentum": 0.99, "epsilon": 0.001, "center": true, "scale": false, "beta_initializer": {"class_name": "Zeros", "config": {"dtype": "float32"}}, "gamma_initializer": {"class_name": "Ones", "config": {"dtype": "float32"}}, "moving_mean_initializer": {"class_name": "Zeros", "config": {"dtype": "float32"}}, "moving_variance_initializer": {"class_name": "Ones", "config": {"dtype": "float32"}}, "beta_regularizer": null, "gamma_regularizer": null, "beta_constraint": null, "gamma_constraint": null}, "inbound_nodes": [[["conv2d_1264", 0, 0, {}]]]}, {"name": "batch_normalization_1269", "class_name": "BatchNormalization", "config": {"name": "batch_normalization_1269", "trainable": true, "dtype": "float32", "axis": [3], "momentum": 0.99, "epsilon": 0.001, "center": true, "scale": false, "beta_initializer": {"class_name": "Zeros", "config": {"dtype": "float32"}}, "gamma_initializer": {"class_name": "Ones", "config": {"dtype": "float32"}}, "moving_mean_initializer": {"class_name": "Zeros", "config": {"dtype": "float32"}}, "moving_variance_initializer": {"class_name": "Ones", "config": {"dtype": "float32"}}, "beta_regularizer": null, "gamma_regularizer": null, "beta_constraint": null, "gamma_constraint": null}, "inbound_nodes": [[["conv2d_1269", 0, 0, {}]]]}, {"name": "activation_1264", "class_name": "Activation", "config": {"name": "activation_1264", "trainable": true, "dtype": "float32", "activation": "relu"}, "inbound_nodes": [[["batch_normalization_1264", 0, 0, {}]]]}, {"name": "activation_1269", "class_name": "Activation", "config": {"name": "activation_1269", "trainable": true, "dtype": "float32", "activation": "relu"}, "inbound_nodes": [[["batch_normalization_1269", 0, 0, {}]]]}, {"name": "average_pooling2d_121", "class_name": "AveragePooling2D", "config": {"name": "average_pooling2d_121", "trainable": true, "dtype": "float32", "pool_size": [3, 3], "padding": "same", "strides": [1, 1], "data_format": "channels_last"}, "inbound_nodes": [[["mixed4", 0, 0, {}]]]}, {"name": "conv2d_1262", "class_name": "Conv2D", "config": {"name": "conv2d_1262", "trainable": true, "dtype": "float32", "filters": 192, "kernel_size": [1, 1], "strides": [1, 1], "padding": "same", "data_format": "channels_last", "dilation_rate": [1, 1], "activation": "linear", "use_bias": false, "kernel_initializer": {"class_name": "GlorotUniform", "config": {"seed": null, "dtype": "float32"}}, "bias_initializer": {"class_name": "Zeros", "config": {"dtype": "float32"}}, "kernel_regularizer": null, "bias_regularizer": null, "activity_regularizer": null, "kernel_constraint": null, "bias_constraint": null}, "inbound_nodes": [[["mixed4", 0, 0, {}]]]}, {"name": "conv2d_1265", "class_name": "Conv2D", "config": {"name": "conv2d_1265", "trainable": true, "dtype": "float32", "filters": 192, "kernel_size": [7, 1], "strides": [1, 1], "padding": "same", "data_format": "channels_last", "dilation_rate": [1, 1], "activation": "linear", "use_bias": false, "kernel_initializer": {"class_name": "GlorotUniform", "config": {"seed": null, "dtype": "float32"}}, "bias_initializer": {"class_name": "Zeros", "config": {"dtype": "float32"}}, "kernel_regularizer": null, "bias_regularizer": null, "activity_regularizer": null, "kernel_constraint": null, "bias_constraint": null}, "inbound_nodes": [[["activation_1264", 0, 0, {}]]]}, {"name": "conv2d_1270", "class_name": "Conv2D", "config": {"name": "conv2d_1270", "trainable": true, "dtype": "float32", "filters": 192, "kernel_size": [1, 7], "strides": [1, 1], "padding": "same", "data_format": "channels_last", "dilation_rate": [1, 1], "activation": "linear", "use_bias": false, "kernel_initializer": {"class_name": "GlorotUniform", "config": {"seed": null, "dtype": "float32"}}, "bias_initializer": {"class_name": "Zeros", "config": {"dtype": "float32"}}, "kernel_regularizer": null, "bias_regularizer": null, "activity_regularizer": null, "kernel_constraint": null, "bias_constraint": null}, "inbound_nodes": [[["activation_1269", 0, 0, {}]]]}, {"name": "conv2d_1271", "class_name": "Conv2D", "config": {"name": "conv2d_1271", "trainable": true, "dtype": "float32", "filters": 192, "kernel_size": [1, 1], "strides": [1, 1], "padding": "same", "data_format": "channels_last", "dilation_rate": [1, 1], "activation": "linear", "use_bias": false, "kernel_initializer": {"class_name": "GlorotUniform", "config": {"seed": null, "dtype": "float32"}}, "bias_initializer": {"class_name": "Zeros", "config": {"dtype": "float32"}}, "kernel_regularizer": null, "bias_regularizer": null, "activity_regularizer": null, "kernel_constraint": null, "bias_constraint": null}, "inbound_nodes": [[["average_pooling2d_121", 0, 0, {}]]]}, {"name": "batch_normalization_1262", "class_name": "BatchNormalization", "config": {"name": "batch_normalization_1262", "trainable": true, "dtype": "float32", "axis": [3], "momentum": 0.99, "epsilon": 0.001, "center": true, "scale": false, "beta_initializer": {"class_name": "Zeros", "config": {"dtype": "float32"}}, "gamma_initializer": {"class_name": "Ones", "config": {"dtype": "float32"}}, "moving_mean_initializer": {"class_name": "Zeros", "config": {"dtype": "float32"}}, "moving_variance_initializer": {"class_name": "Ones", "config": {"dtype": "float32"}}, "beta_regularizer": null, "gamma_regularizer": null, "beta_constraint": null, "gamma_constraint": null}, "inbound_nodes": [[["conv2d_1262", 0, 0, {}]]]}, {"name": "batch_normalization_1265", "class_name": "BatchNormalization", "config": {"name": "batch_normalization_1265", "trainable": true, "dtype": "float32", "axis": [3], "momentum": 0.99, "epsilon": 0.001, "center": true, "scale": false, "beta_initializer": {"class_name": "Zeros", "config": {"dtype": "float32"}}, "gamma_initializer": {"class_name": "Ones", "config": {"dtype": "float32"}}, "moving_mean_initializer": {"class_name": "Zeros", "config": {"dtype": "float32"}}, "moving_variance_initializer": {"class_name": "Ones", "config": {"dtype": "float32"}}, "beta_regularizer": null, "gamma_regularizer": null, "beta_constraint": null, "gamma_constraint": null}, "inbound_nodes": [[["conv2d_1265", 0, 0, {}]]]}, {"name": "batch_normalization_1270", "class_name": "BatchNormalization", "config": {"name": "batch_normalization_1270", "trainable": true, "dtype": "float32", "axis": [3], "momentum": 0.99, "epsilon": 0.001, "center": true, "scale": false, "beta_initializer": {"class_name": "Zeros", "config": {"dtype": "float32"}}, "gamma_initializer": {"class_name": "Ones", "config": {"dtype": "float32"}}, "moving_mean_initializer": {"class_name": "Zeros", "config": {"dtype": "float32"}}, "moving_variance_initializer": {"class_name": "Ones", "config": {"dtype": "float32"}}, "beta_regularizer": null, "gamma_regularizer": null, "beta_constraint": null, "gamma_constraint": null}, "inbound_nodes": [[["conv2d_1270", 0, 0, {}]]]}, {"name": "batch_normalization_1271", "class_name": "BatchNormalization", "config": {"name": "batch_normalization_1271", "trainable": true, "dtype": "float32", "axis": [3], "momentum": 0.99, "epsilon": 0.001, "center": true, "scale": false, "beta_initializer": {"class_name": "Zeros", "config": {"dtype": "float32"}}, "gamma_initializer": {"class_name": "Ones", "config": {"dtype": "float32"}}, "moving_mean_initializer": {"class_name": "Zeros", "config": {"dtype": "float32"}}, "moving_variance_initializer": {"class_name": "Ones", "config": {"dtype": "float32"}}, "beta_regularizer": null, "gamma_regularizer": null, "beta_constraint": null, "gamma_constraint": null}, "inbound_nodes": [[["conv2d_1271", 0, 0, {}]]]}, {"name": "activation_1262", "class_name": "Activation", "config": {"name": "activation_1262", "trainable": true, "dtype": "float32", "activation": "relu"}, "inbound_nodes": [[["batch_normalization_1262", 0, 0, {}]]]}, {"name": "activation_1265", "class_name": "Activation", "config": {"name": "activation_1265", "trainable": true, "dtype": "float32", "activation": "relu"}, "inbound_nodes": [[["batch_normalization_1265", 0, 0, {}]]]}, {"name": "activation_1270", "class_name": "Activation", "config": {"name": "activation_1270", "trainable": true, "dtype": "float32", "activation": "relu"}, "inbound_nodes": [[["batch_normalization_1270", 0, 0, {}]]]}, {"name": "activation_1271", "class_name": "Activation", "config": {"name": "activation_1271", "trainable": true, "dtype": "float32", "activation": "relu"}, "inbound_nodes": [[["batch_normalization_1271", 0, 0, {}]]]}, {"name": "mixed5", "class_name": "Concatenate", "config": {"name": "mixed5", "trainable": true, "dtype": "float32", "axis": 3}, "inbound_nodes": [[["activation_1262", 0, 0, {}], ["activation_1265", 0, 0, {}], ["activation_1270", 0, 0, {}], ["activation_1271", 0, 0, {}]]]}, {"name": "conv2d_1276", "class_name": "Conv2D", "config": {"name": "conv2d_1276", "trainable": true, "dtype": "float32", "filters": 160, "kernel_size": [1, 1], "strides": [1, 1], "padding": "same", "data_format": "channels_last", "dilation_rate": [1, 1], "activation": "linear", "use_bias": false, "kernel_initializer": {"class_name": "GlorotUniform", "config": {"seed": null, "dtype": "float32"}}, "bias_initializer": {"class_name": "Zeros", "config": {"dtype": "float32"}}, "kernel_regularizer": null, "bias_regularizer": null, "activity_regularizer": null, "kernel_constraint": null, "bias_constraint": null}, "inbound_nodes": [[["mixed5", 0, 0, {}]]]}, {"name": "batch_normalization_1276", "class_name": "BatchNormalization", "config": {"name": "batch_normalization_1276", "trainable": true, "dtype": "float32", "axis": [3], "momentum": 0.99, "epsilon": 0.001, "center": true, "scale": false, "beta_initializer": {"class_name": "Zeros", "config": {"dtype": "float32"}}, "gamma_initializer": {"class_name": "Ones", "config": {"dtype": "float32"}}, "moving_mean_initializer": {"class_name": "Zeros", "config": {"dtype": "float32"}}, "moving_variance_initializer": {"class_name": "Ones", "config": {"dtype": "float32"}}, "beta_regularizer": null, "gamma_regularizer": null, "beta_constraint": null, "gamma_constraint": null}, "inbound_nodes": [[["conv2d_1276", 0, 0, {}]]]}, {"name": "activation_1276", "class_name": "Activation", "config": {"name": "activation_1276", "trainable": true, "dtype": "float32", "activation": "relu"}, "inbound_nodes": [[["batch_normalization_1276", 0, 0, {}]]]}, {"name": "conv2d_1277", "class_name": "Conv2D", "config": {"name": "conv2d_1277", "trainable": true, "dtype": "float32", "filters": 160, "kernel_size": [7, 1], "strides": [1, 1], "padding": "same", "data_format": "channels_last", "dilation_rate": [1, 1], "activation": "linear", "use_bias": false, "kernel_initializer": {"class_name": "GlorotUniform", "config": {"seed": null, "dtype": "float32"}}, "bias_initializer": {"class_name": "Zeros", "config": {"dtype": "float32"}}, "kernel_regularizer": null, "bias_regularizer": null, "activity_regularizer": null, "kernel_constraint": null, "bias_constraint": null}, "inbound_nodes": [[["activation_1276", 0, 0, {}]]]}, {"name": "batch_normalization_1277", "class_name": "BatchNormalization", "config": {"name": "batch_normalization_1277", "trainable": true, "dtype": "float32", "axis": [3], "momentum": 0.99, "epsilon": 0.001, "center": true, "scale": false, "beta_initializer": {"class_name": "Zeros", "config": {"dtype": "float32"}}, "gamma_initializer": {"class_name": "Ones", "config": {"dtype": "float32"}}, "moving_mean_initializer": {"class_name": "Zeros", "config": {"dtype": "float32"}}, "moving_variance_initializer": {"class_name": "Ones", "config": {"dtype": "float32"}}, "beta_regularizer": null, "gamma_regularizer": null, "beta_constraint": null, "gamma_constraint": null}, "inbound_nodes": [[["conv2d_1277", 0, 0, {}]]]}, {"name": "activation_1277", "class_name": "Activation", "config": {"name": "activation_1277", "trainable": true, "dtype": "float32", "activation": "relu"}, "inbound_nodes": [[["batch_normalization_1277", 0, 0, {}]]]}, {"name": "conv2d_1273", "class_name": "Conv2D", "config": {"name": "conv2d_1273", "trainable": true, "dtype": "float32", "filters": 160, "kernel_size": [1, 1], "strides": [1, 1], "padding": "same", "data_format": "channels_last", "dilation_rate": [1, 1], "activation": "linear", "use_bias": false, "kernel_initializer": {"class_name": "GlorotUniform", "config": {"seed": null, "dtype": "float32"}}, "bias_initializer": {"class_name": "Zeros", "config": {"dtype": "float32"}}, "kernel_regularizer": null, "bias_regularizer": null, "activity_regularizer": null, "kernel_constraint": null, "bias_constraint": null}, "inbound_nodes": [[["mixed5", 0, 0, {}]]]}, {"name": "conv2d_1278", "class_name": "Conv2D", "config": {"name": "conv2d_1278", "trainable": true, "dtype": "float32", "filters": 160, "kernel_size": [1, 7], "strides": [1, 1], "padding": "same", "data_format": "channels_last", "dilation_rate": [1, 1], "activation": "linear", "use_bias": false, "kernel_initializer": {"class_name": "GlorotUniform", "config": {"seed": null, "dtype": "float32"}}, "bias_initializer": {"class_name": "Zeros", "config": {"dtype": "float32"}}, "kernel_regularizer": null, "bias_regularizer": null, "activity_regularizer": null, "kernel_constraint": null, "bias_constraint": null}, "inbound_nodes": [[["activation_1277", 0, 0, {}]]]}, {"name": "batch_normalization_1273", "class_name": "BatchNormalization", "config": {"name": "batch_normalization_1273", "trainable": true, "dtype": "float32", "axis": [3], "momentum": 0.99, "epsilon": 0.001, "center": true, "scale": false, "beta_initializer": {"class_name": "Zeros", "config": {"dtype": "float32"}}, "gamma_initializer": {"class_name": "Ones", "config": {"dtype": "float32"}}, "moving_mean_initializer": {"class_name": "Zeros", "config": {"dtype": "float32"}}, "moving_variance_initializer": {"class_name": "Ones", "config": {"dtype": "float32"}}, "beta_regularizer": null, "gamma_regularizer": null, "beta_constraint": null, "gamma_constraint": null}, "inbound_nodes": [[["conv2d_1273", 0, 0, {}]]]}, {"name": "batch_normalization_1278", "class_name": "BatchNormalization", "config": {"name": "batch_normalization_1278", "trainable": true, "dtype": "float32", "axis": [3], "momentum": 0.99, "epsilon": 0.001, "center": true, "scale": false, "beta_initializer": {"class_name": "Zeros", "config": {"dtype": "float32"}}, "gamma_initializer": {"class_name": "Ones", "config": {"dtype": "float32"}}, "moving_mean_initializer": {"class_name": "Zeros", "config": {"dtype": "float32"}}, "moving_variance_initializer": {"class_name": "Ones", "config": {"dtype": "float32"}}, "beta_regularizer": null, "gamma_regularizer": null, "beta_constraint": null, "gamma_constraint": null}, "inbound_nodes": [[["conv2d_1278", 0, 0, {}]]]}, {"name": "activation_1273", "class_name": "Activation", "config": {"name": "activation_1273", "trainable": true, "dtype": "float32", "activation": "relu"}, "inbound_nodes": [[["batch_normalization_1273", 0, 0, {}]]]}, {"name": "activation_1278", "class_name": "Activation", "config": {"name": "activation_1278", "trainable": true, "dtype": "float32", "activation": "relu"}, "inbound_nodes": [[["batch_normalization_1278", 0, 0, {}]]]}, {"name": "conv2d_1274", "class_name": "Conv2D", "config": {"name": "conv2d_1274", "trainable": true, "dtype": "float32", "filters": 160, "kernel_size": [1, 7], "strides": [1, 1], "padding": "same", "data_format": "channels_last", "dilation_rate": [1, 1], "activation": "linear", "use_bias": false, "kernel_initializer": {"class_name": "GlorotUniform", "config": {"seed": null, "dtype": "float32"}}, "bias_initializer": {"class_name": "Zeros", "config": {"dtype": "float32"}}, "kernel_regularizer": null, "bias_regularizer": null, "activity_regularizer": null, "kernel_constraint": null, "bias_constraint": null}, "inbound_nodes": [[["activation_1273", 0, 0, {}]]]}, {"name": "conv2d_1279", "class_name": "Conv2D", "config": {"name": "conv2d_1279", "trainable": true, "dtype": "float32", "filters": 160, "kernel_size": [7, 1], "strides": [1, 1], "padding": "same", "data_format": "channels_last", "dilation_rate": [1, 1], "activation": "linear", "use_bias": false, "kernel_initializer": {"class_name": "GlorotUniform", "config": {"seed": null, "dtype": "float32"}}, "bias_initializer": {"class_name": "Zeros", "config": {"dtype": "float32"}}, "kernel_regularizer": null, "bias_regularizer": null, "activity_regularizer": null, "kernel_constraint": null, "bias_constraint": null}, "inbound_nodes": [[["activation_1278", 0, 0, {}]]]}, {"name": "batch_normalization_1274", "class_name": "BatchNormalization", "config": {"name": "batch_normalization_1274", "trainable": true, "dtype": "float32", "axis": [3], "momentum": 0.99, "epsilon": 0.001, "center": true, "scale": false, "beta_initializer": {"class_name": "Zeros", "config": {"dtype": "float32"}}, "gamma_initializer": {"class_name": "Ones", "config": {"dtype": "float32"}}, "moving_mean_initializer": {"class_name": "Zeros", "config": {"dtype": "float32"}}, "moving_variance_initializer": {"class_name": "Ones", "config": {"dtype": "float32"}}, "beta_regularizer": null, "gamma_regularizer": null, "beta_constraint": null, "gamma_constraint": null}, "inbound_nodes": [[["conv2d_1274", 0, 0, {}]]]}, {"name": "batch_normalization_1279", "class_name": "BatchNormalization", "config": {"name": "batch_normalization_1279", "trainable": true, "dtype": "float32", "axis": [3], "momentum": 0.99, "epsilon": 0.001, "center": true, "scale": false, "beta_initializer": {"class_name": "Zeros", "config": {"dtype": "float32"}}, "gamma_initializer": {"class_name": "Ones", "config": {"dtype": "float32"}}, "moving_mean_initializer": {"class_name": "Zeros", "config": {"dtype": "float32"}}, "moving_variance_initializer": {"class_name": "Ones", "config": {"dtype": "float32"}}, "beta_regularizer": null, "gamma_regularizer": null, "beta_constraint": null, "gamma_constraint": null}, "inbound_nodes": [[["conv2d_1279", 0, 0, {}]]]}, {"name": "activation_1274", "class_name": "Activation", "config": {"name": "activation_1274", "trainable": true, "dtype": "float32", "activation": "relu"}, "inbound_nodes": [[["batch_normalization_1274", 0, 0, {}]]]}, {"name": "activation_1279", "class_name": "Activation", "config": {"name": "activation_1279", "trainable": true, "dtype": "float32", "activation": "relu"}, "inbound_nodes": [[["batch_normalization_1279", 0, 0, {}]]]}, {"name": "average_pooling2d_122", "class_name": "AveragePooling2D", "config": {"name": "average_pooling2d_122", "trainable": true, "dtype": "float32", "pool_size": [3, 3], "padding": "same", "strides": [1, 1], "data_format": "channels_last"}, "inbound_nodes": [[["mixed5", 0, 0, {}]]]}, {"name": "conv2d_1272", "class_name": "Conv2D", "config": {"name": "conv2d_1272", "trainable": true, "dtype": "float32", "filters": 192, "kernel_size": [1, 1], "strides": [1, 1], "padding": "same", "data_format": "channels_last", "dilation_rate": [1, 1], "activation": "linear", "use_bias": false, "kernel_initializer": {"class_name": "GlorotUniform", "config": {"seed": null, "dtype": "float32"}}, "bias_initializer": {"class_name": "Zeros", "config": {"dtype": "float32"}}, "kernel_regularizer": null, "bias_regularizer": null, "activity_regularizer": null, "kernel_constraint": null, "bias_constraint": null}, "inbound_nodes": [[["mixed5", 0, 0, {}]]]}, {"name": "conv2d_1275", "class_name": "Conv2D", "config": {"name": "conv2d_1275", "trainable": true, "dtype": "float32", "filters": 192, "kernel_size": [7, 1], "strides": [1, 1], "padding": "same", "data_format": "channels_last", "dilation_rate": [1, 1], "activation": "linear", "use_bias": false, "kernel_initializer": {"class_name": "GlorotUniform", "config": {"seed": null, "dtype": "float32"}}, "bias_initializer": {"class_name": "Zeros", "config": {"dtype": "float32"}}, "kernel_regularizer": null, "bias_regularizer": null, "activity_regularizer": null, "kernel_constraint": null, "bias_constraint": null}, "inbound_nodes": [[["activation_1274", 0, 0, {}]]]}, {"name": "conv2d_1280", "class_name": "Conv2D", "config": {"name": "conv2d_1280", "trainable": true, "dtype": "float32", "filters": 192, "kernel_size": [1, 7], "strides": [1, 1], "padding": "same", "data_format": "channels_last", "dilation_rate": [1, 1], "activation": "linear", "use_bias": false, "kernel_initializer": {"class_name": "GlorotUniform", "config": {"seed": null, "dtype": "float32"}}, "bias_initializer": {"class_name": "Zeros", "config": {"dtype": "float32"}}, "kernel_regularizer": null, "bias_regularizer": null, "activity_regularizer": null, "kernel_constraint": null, "bias_constraint": null}, "inbound_nodes": [[["activation_1279", 0, 0, {}]]]}, {"name": "conv2d_1281", "class_name": "Conv2D", "config": {"name": "conv2d_1281", "trainable": true, "dtype": "float32", "filters": 192, "kernel_size": [1, 1], "strides": [1, 1], "padding": "same", "data_format": "channels_last", "dilation_rate": [1, 1], "activation": "linear", "use_bias": false, "kernel_initializer": {"class_name": "GlorotUniform", "config": {"seed": null, "dtype": "float32"}}, "bias_initializer": {"class_name": "Zeros", "config": {"dtype": "float32"}}, "kernel_regularizer": null, "bias_regularizer": null, "activity_regularizer": null, "kernel_constraint": null, "bias_constraint": null}, "inbound_nodes": [[["average_pooling2d_122", 0, 0, {}]]]}, {"name": "batch_normalization_1272", "class_name": "BatchNormalization", "config": {"name": "batch_normalization_1272", "trainable": true, "dtype": "float32", "axis": [3], "momentum": 0.99, "epsilon": 0.001, "center": true, "scale": false, "beta_initializer": {"class_name": "Zeros", "config": {"dtype": "float32"}}, "gamma_initializer": {"class_name": "Ones", "config": {"dtype": "float32"}}, "moving_mean_initializer": {"class_name": "Zeros", "config": {"dtype": "float32"}}, "moving_variance_initializer": {"class_name": "Ones", "config": {"dtype": "float32"}}, "beta_regularizer": null, "gamma_regularizer": null, "beta_constraint": null, "gamma_constraint": null}, "inbound_nodes": [[["conv2d_1272", 0, 0, {}]]]}, {"name": "batch_normalization_1275", "class_name": "BatchNormalization", "config": {"name": "batch_normalization_1275", "trainable": true, "dtype": "float32", "axis": [3], "momentum": 0.99, "epsilon": 0.001, "center": true, "scale": false, "beta_initializer": {"class_name": "Zeros", "config": {"dtype": "float32"}}, "gamma_initializer": {"class_name": "Ones", "config": {"dtype": "float32"}}, "moving_mean_initializer": {"class_name": "Zeros", "config": {"dtype": "float32"}}, "moving_variance_initializer": {"class_name": "Ones", "config": {"dtype": "float32"}}, "beta_regularizer": null, "gamma_regularizer": null, "beta_constraint": null, "gamma_constraint": null}, "inbound_nodes": [[["conv2d_1275", 0, 0, {}]]]}, {"name": "batch_normalization_1280", "class_name": "BatchNormalization", "config": {"name": "batch_normalization_1280", "trainable": true, "dtype": "float32", "axis": [3], "momentum": 0.99, "epsilon": 0.001, "center": true, "scale": false, "beta_initializer": {"class_name": "Zeros", "config": {"dtype": "float32"}}, "gamma_initializer": {"class_name": "Ones", "config": {"dtype": "float32"}}, "moving_mean_initializer": {"class_name": "Zeros", "config": {"dtype": "float32"}}, "moving_variance_initializer": {"class_name": "Ones", "config": {"dtype": "float32"}}, "beta_regularizer": null, "gamma_regularizer": null, "beta_constraint": null, "gamma_constraint": null}, "inbound_nodes": [[["conv2d_1280", 0, 0, {}]]]}, {"name": "batch_normalization_1281", "class_name": "BatchNormalization", "config": {"name": "batch_normalization_1281", "trainable": true, "dtype": "float32", "axis": [3], "momentum": 0.99, "epsilon": 0.001, "center": true, "scale": false, "beta_initializer": {"class_name": "Zeros", "config": {"dtype": "float32"}}, "gamma_initializer": {"class_name": "Ones", "config": {"dtype": "float32"}}, "moving_mean_initializer": {"class_name": "Zeros", "config": {"dtype": "float32"}}, "moving_variance_initializer": {"class_name": "Ones", "config": {"dtype": "float32"}}, "beta_regularizer": null, "gamma_regularizer": null, "beta_constraint": null, "gamma_constraint": null}, "inbound_nodes": [[["conv2d_1281", 0, 0, {}]]]}, {"name": "activation_1272", "class_name": "Activation", "config": {"name": "activation_1272", "trainable": true, "dtype": "float32", "activation": "relu"}, "inbound_nodes": [[["batch_normalization_1272", 0, 0, {}]]]}, {"name": "activation_1275", "class_name": "Activation", "config": {"name": "activation_1275", "trainable": true, "dtype": "float32", "activation": "relu"}, "inbound_nodes": [[["batch_normalization_1275", 0, 0, {}]]]}, {"name": "activation_1280", "class_name": "Activation", "config": {"name": "activation_1280", "trainable": true, "dtype": "float32", "activation": "relu"}, "inbound_nodes": [[["batch_normalization_1280", 0, 0, {}]]]}, {"name": "activation_1281", "class_name": "Activation", "config": {"name": "activation_1281", "trainable": true, "dtype": "float32", "activation": "relu"}, "inbound_nodes": [[["batch_normalization_1281", 0, 0, {}]]]}, {"name": "mixed6", "class_name": "Concatenate", "config": {"name": "mixed6", "trainable": true, "dtype": "float32", "axis": 3}, "inbound_nodes": [[["activation_1272", 0, 0, {}], ["activation_1275", 0, 0, {}], ["activation_1280", 0, 0, {}], ["activation_1281", 0, 0, {}]]]}, {"name": "conv2d_1286", "class_name": "Conv2D", "config": {"name": "conv2d_1286", "trainable": true, "dtype": "float32", "filters": 192, "kernel_size": [1, 1], "strides": [1, 1], "padding": "same", "data_format": "channels_last", "dilation_rate": [1, 1], "activation": "linear", "use_bias": false, "kernel_initializer": {"class_name": "GlorotUniform", "config": {"seed": null, "dtype": "float32"}}, "bias_initializer": {"class_name": "Zeros", "config": {"dtype": "float32"}}, "kernel_regularizer": null, "bias_regularizer": null, "activity_regularizer": null, "kernel_constraint": null, "bias_constraint": null}, "inbound_nodes": [[["mixed6", 0, 0, {}]]]}, {"name": "batch_normalization_1286", "class_name": "BatchNormalization", "config": {"name": "batch_normalization_1286", "trainable": true, "dtype": "float32", "axis": [3], "momentum": 0.99, "epsilon": 0.001, "center": true, "scale": false, "beta_initializer": {"class_name": "Zeros", "config": {"dtype": "float32"}}, "gamma_initializer": {"class_name": "Ones", "config": {"dtype": "float32"}}, "moving_mean_initializer": {"class_name": "Zeros", "config": {"dtype": "float32"}}, "moving_variance_initializer": {"class_name": "Ones", "config": {"dtype": "float32"}}, "beta_regularizer": null, "gamma_regularizer": null, "beta_constraint": null, "gamma_constraint": null}, "inbound_nodes": [[["conv2d_1286", 0, 0, {}]]]}, {"name": "activation_1286", "class_name": "Activation", "config": {"name": "activation_1286", "trainable": true, "dtype": "float32", "activation": "relu"}, "inbound_nodes": [[["batch_normalization_1286", 0, 0, {}]]]}, {"name": "conv2d_1287", "class_name": "Conv2D", "config": {"name": "conv2d_1287", "trainable": true, "dtype": "float32", "filters": 192, "kernel_size": [7, 1], "strides": [1, 1], "padding": "same", "data_format": "channels_last", "dilation_rate": [1, 1], "activation": "linear", "use_bias": false, "kernel_initializer": {"class_name": "GlorotUniform", "config": {"seed": null, "dtype": "float32"}}, "bias_initializer": {"class_name": "Zeros", "config": {"dtype": "float32"}}, "kernel_regularizer": null, "bias_regularizer": null, "activity_regularizer": null, "kernel_constraint": null, "bias_constraint": null}, "inbound_nodes": [[["activation_1286", 0, 0, {}]]]}, {"name": "batch_normalization_1287", "class_name": "BatchNormalization", "config": {"name": "batch_normalization_1287", "trainable": true, "dtype": "float32", "axis": [3], "momentum": 0.99, "epsilon": 0.001, "center": true, "scale": false, "beta_initializer": {"class_name": "Zeros", "config": {"dtype": "float32"}}, "gamma_initializer": {"class_name": "Ones", "config": {"dtype": "float32"}}, "moving_mean_initializer": {"class_name": "Zeros", "config": {"dtype": "float32"}}, "moving_variance_initializer": {"class_name": "Ones", "config": {"dtype": "float32"}}, "beta_regularizer": null, "gamma_regularizer": null, "beta_constraint": null, "gamma_constraint": null}, "inbound_nodes": [[["conv2d_1287", 0, 0, {}]]]}, {"name": "activation_1287", "class_name": "Activation", "config": {"name": "activation_1287", "trainable": true, "dtype": "float32", "activation": "relu"}, "inbound_nodes": [[["batch_normalization_1287", 0, 0, {}]]]}, {"name": "conv2d_1283", "class_name": "Conv2D", "config": {"name": "conv2d_1283", "trainable": true, "dtype": "float32", "filters": 192, "kernel_size": [1, 1], "strides": [1, 1], "padding": "same", "data_format": "channels_last", "dilation_rate": [1, 1], "activation": "linear", "use_bias": false, "kernel_initializer": {"class_name": "GlorotUniform", "config": {"seed": null, "dtype": "float32"}}, "bias_initializer": {"class_name": "Zeros", "config": {"dtype": "float32"}}, "kernel_regularizer": null, "bias_regularizer": null, "activity_regularizer": null, "kernel_constraint": null, "bias_constraint": null}, "inbound_nodes": [[["mixed6", 0, 0, {}]]]}, {"name": "conv2d_1288", "class_name": "Conv2D", "config": {"name": "conv2d_1288", "trainable": true, "dtype": "float32", "filters": 192, "kernel_size": [1, 7], "strides": [1, 1], "padding": "same", "data_format": "channels_last", "dilation_rate": [1, 1], "activation": "linear", "use_bias": false, "kernel_initializer": {"class_name": "GlorotUniform", "config": {"seed": null, "dtype": "float32"}}, "bias_initializer": {"class_name": "Zeros", "config": {"dtype": "float32"}}, "kernel_regularizer": null, "bias_regularizer": null, "activity_regularizer": null, "kernel_constraint": null, "bias_constraint": null}, "inbound_nodes": [[["activation_1287", 0, 0, {}]]]}, {"name": "batch_normalization_1283", "class_name": "BatchNormalization", "config": {"name": "batch_normalization_1283", "trainable": true, "dtype": "float32", "axis": [3], "momentum": 0.99, "epsilon": 0.001, "center": true, "scale": false, "beta_initializer": {"class_name": "Zeros", "config": {"dtype": "float32"}}, "gamma_initializer": {"class_name": "Ones", "config": {"dtype": "float32"}}, "moving_mean_initializer": {"class_name": "Zeros", "config": {"dtype": "float32"}}, "moving_variance_initializer": {"class_name": "Ones", "config": {"dtype": "float32"}}, "beta_regularizer": null, "gamma_regularizer": null, "beta_constraint": null, "gamma_constraint": null}, "inbound_nodes": [[["conv2d_1283", 0, 0, {}]]]}, {"name": "batch_normalization_1288", "class_name": "BatchNormalization", "config": {"name": "batch_normalization_1288", "trainable": true, "dtype": "float32", "axis": [3], "momentum": 0.99, "epsilon": 0.001, "center": true, "scale": false, "beta_initializer": {"class_name": "Zeros", "config": {"dtype": "float32"}}, "gamma_initializer": {"class_name": "Ones", "config": {"dtype": "float32"}}, "moving_mean_initializer": {"class_name": "Zeros", "config": {"dtype": "float32"}}, "moving_variance_initializer": {"class_name": "Ones", "config": {"dtype": "float32"}}, "beta_regularizer": null, "gamma_regularizer": null, "beta_constraint": null, "gamma_constraint": null}, "inbound_nodes": [[["conv2d_1288", 0, 0, {}]]]}, {"name": "activation_1283", "class_name": "Activation", "config": {"name": "activation_1283", "trainable": true, "dtype": "float32", "activation": "relu"}, "inbound_nodes": [[["batch_normalization_1283", 0, 0, {}]]]}, {"name": "activation_1288", "class_name": "Activation", "config": {"name": "activation_1288", "trainable": true, "dtype": "float32", "activation": "relu"}, "inbound_nodes": [[["batch_normalization_1288", 0, 0, {}]]]}, {"name": "conv2d_1284", "class_name": "Conv2D", "config": {"name": "conv2d_1284", "trainable": true, "dtype": "float32", "filters": 192, "kernel_size": [1, 7], "strides": [1, 1], "padding": "same", "data_format": "channels_last", "dilation_rate": [1, 1], "activation": "linear", "use_bias": false, "kernel_initializer": {"class_name": "GlorotUniform", "config": {"seed": null, "dtype": "float32"}}, "bias_initializer": {"class_name": "Zeros", "config": {"dtype": "float32"}}, "kernel_regularizer": null, "bias_regularizer": null, "activity_regularizer": null, "kernel_constraint": null, "bias_constraint": null}, "inbound_nodes": [[["activation_1283", 0, 0, {}]]]}, {"name": "conv2d_1289", "class_name": "Conv2D", "config": {"name": "conv2d_1289", "trainable": true, "dtype": "float32", "filters": 192, "kernel_size": [7, 1], "strides": [1, 1], "padding": "same", "data_format": "channels_last", "dilation_rate": [1, 1], "activation": "linear", "use_bias": false, "kernel_initializer": {"class_name": "GlorotUniform", "config": {"seed": null, "dtype": "float32"}}, "bias_initializer": {"class_name": "Zeros", "config": {"dtype": "float32"}}, "kernel_regularizer": null, "bias_regularizer": null, "activity_regularizer": null, "kernel_constraint": null, "bias_constraint": null}, "inbound_nodes": [[["activation_1288", 0, 0, {}]]]}, {"name": "batch_normalization_1284", "class_name": "BatchNormalization", "config": {"name": "batch_normalization_1284", "trainable": true, "dtype": "float32", "axis": [3], "momentum": 0.99, "epsilon": 0.001, "center": true, "scale": false, "beta_initializer": {"class_name": "Zeros", "config": {"dtype": "float32"}}, "gamma_initializer": {"class_name": "Ones", "config": {"dtype": "float32"}}, "moving_mean_initializer": {"class_name": "Zeros", "config": {"dtype": "float32"}}, "moving_variance_initializer": {"class_name": "Ones", "config": {"dtype": "float32"}}, "beta_regularizer": null, "gamma_regularizer": null, "beta_constraint": null, "gamma_constraint": null}, "inbound_nodes": [[["conv2d_1284", 0, 0, {}]]]}, {"name": "batch_normalization_1289", "class_name": "BatchNormalization", "config": {"name": "batch_normalization_1289", "trainable": true, "dtype": "float32", "axis": [3], "momentum": 0.99, "epsilon": 0.001, "center": true, "scale": false, "beta_initializer": {"class_name": "Zeros", "config": {"dtype": "float32"}}, "gamma_initializer": {"class_name": "Ones", "config": {"dtype": "float32"}}, "moving_mean_initializer": {"class_name": "Zeros", "config": {"dtype": "float32"}}, "moving_variance_initializer": {"class_name": "Ones", "config": {"dtype": "float32"}}, "beta_regularizer": null, "gamma_regularizer": null, "beta_constraint": null, "gamma_constraint": null}, "inbound_nodes": [[["conv2d_1289", 0, 0, {}]]]}, {"name": "activation_1284", "class_name": "Activation", "config": {"name": "activation_1284", "trainable": true, "dtype": "float32", "activation": "relu"}, "inbound_nodes": [[["batch_normalization_1284", 0, 0, {}]]]}, {"name": "activation_1289", "class_name": "Activation", "config": {"name": "activation_1289", "trainable": true, "dtype": "float32", "activation": "relu"}, "inbound_nodes": [[["batch_normalization_1289", 0, 0, {}]]]}, {"name": "average_pooling2d_123", "class_name": "AveragePooling2D", "config": {"name": "average_pooling2d_123", "trainable": true, "dtype": "float32", "pool_size": [3, 3], "padding": "same", "strides": [1, 1], "data_format": "channels_last"}, "inbound_nodes": [[["mixed6", 0, 0, {}]]]}, {"name": "conv2d_1282", "class_name": "Conv2D", "config": {"name": "conv2d_1282", "trainable": true, "dtype": "float32", "filters": 192, "kernel_size": [1, 1], "strides": [1, 1], "padding": "same", "data_format": "channels_last", "dilation_rate": [1, 1], "activation": "linear", "use_bias": false, "kernel_initializer": {"class_name": "GlorotUniform", "config": {"seed": null, "dtype": "float32"}}, "bias_initializer": {"class_name": "Zeros", "config": {"dtype": "float32"}}, "kernel_regularizer": null, "bias_regularizer": null, "activity_regularizer": null, "kernel_constraint": null, "bias_constraint": null}, "inbound_nodes": [[["mixed6", 0, 0, {}]]]}, {"name": "conv2d_1285", "class_name": "Conv2D", "config": {"name": "conv2d_1285", "trainable": true, "dtype": "float32", "filters": 192, "kernel_size": [7, 1], "strides": [1, 1], "padding": "same", "data_format": "channels_last", "dilation_rate": [1, 1], "activation": "linear", "use_bias": false, "kernel_initializer": {"class_name": "GlorotUniform", "config": {"seed": null, "dtype": "float32"}}, "bias_initializer": {"class_name": "Zeros", "config": {"dtype": "float32"}}, "kernel_regularizer": null, "bias_regularizer": null, "activity_regularizer": null, "kernel_constraint": null, "bias_constraint": null}, "inbound_nodes": [[["activation_1284", 0, 0, {}]]]}, {"name": "conv2d_1290", "class_name": "Conv2D", "config": {"name": "conv2d_1290", "trainable": true, "dtype": "float32", "filters": 192, "kernel_size": [1, 7], "strides": [1, 1], "padding": "same", "data_format": "channels_last", "dilation_rate": [1, 1], "activation": "linear", "use_bias": false, "kernel_initializer": {"class_name": "GlorotUniform", "config": {"seed": null, "dtype": "float32"}}, "bias_initializer": {"class_name": "Zeros", "config": {"dtype": "float32"}}, "kernel_regularizer": null, "bias_regularizer": null, "activity_regularizer": null, "kernel_constraint": null, "bias_constraint": null}, "inbound_nodes": [[["activation_1289", 0, 0, {}]]]}, {"name": "conv2d_1291", "class_name": "Conv2D", "config": {"name": "conv2d_1291", "trainable": true, "dtype": "float32", "filters": 192, "kernel_size": [1, 1], "strides": [1, 1], "padding": "same", "data_format": "channels_last", "dilation_rate": [1, 1], "activation": "linear", "use_bias": false, "kernel_initializer": {"class_name": "GlorotUniform", "config": {"seed": null, "dtype": "float32"}}, "bias_initializer": {"class_name": "Zeros", "config": {"dtype": "float32"}}, "kernel_regularizer": null, "bias_regularizer": null, "activity_regularizer": null, "kernel_constraint": null, "bias_constraint": null}, "inbound_nodes": [[["average_pooling2d_123", 0, 0, {}]]]}, {"name": "batch_normalization_1282", "class_name": "BatchNormalization", "config": {"name": "batch_normalization_1282", "trainable": true, "dtype": "float32", "axis": [3], "momentum": 0.99, "epsilon": 0.001, "center": true, "scale": false, "beta_initializer": {"class_name": "Zeros", "config": {"dtype": "float32"}}, "gamma_initializer": {"class_name": "Ones", "config": {"dtype": "float32"}}, "moving_mean_initializer": {"class_name": "Zeros", "config": {"dtype": "float32"}}, "moving_variance_initializer": {"class_name": "Ones", "config": {"dtype": "float32"}}, "beta_regularizer": null, "gamma_regularizer": null, "beta_constraint": null, "gamma_constraint": null}, "inbound_nodes": [[["conv2d_1282", 0, 0, {}]]]}, {"name": "batch_normalization_1285", "class_name": "BatchNormalization", "config": {"name": "batch_normalization_1285", "trainable": true, "dtype": "float32", "axis": [3], "momentum": 0.99, "epsilon": 0.001, "center": true, "scale": false, "beta_initializer": {"class_name": "Zeros", "config": {"dtype": "float32"}}, "gamma_initializer": {"class_name": "Ones", "config": {"dtype": "float32"}}, "moving_mean_initializer": {"class_name": "Zeros", "config": {"dtype": "float32"}}, "moving_variance_initializer": {"class_name": "Ones", "config": {"dtype": "float32"}}, "beta_regularizer": null, "gamma_regularizer": null, "beta_constraint": null, "gamma_constraint": null}, "inbound_nodes": [[["conv2d_1285", 0, 0, {}]]]}, {"name": "batch_normalization_1290", "class_name": "BatchNormalization", "config": {"name": "batch_normalization_1290", "trainable": true, "dtype": "float32", "axis": [3], "momentum": 0.99, "epsilon": 0.001, "center": true, "scale": false, "beta_initializer": {"class_name": "Zeros", "config": {"dtype": "float32"}}, "gamma_initializer": {"class_name": "Ones", "config": {"dtype": "float32"}}, "moving_mean_initializer": {"class_name": "Zeros", "config": {"dtype": "float32"}}, "moving_variance_initializer": {"class_name": "Ones", "config": {"dtype": "float32"}}, "beta_regularizer": null, "gamma_regularizer": null, "beta_constraint": null, "gamma_constraint": null}, "inbound_nodes": [[["conv2d_1290", 0, 0, {}]]]}, {"name": "batch_normalization_1291", "class_name": "BatchNormalization", "config": {"name": "batch_normalization_1291", "trainable": true, "dtype": "float32", "axis": [3], "momentum": 0.99, "epsilon": 0.001, "center": true, "scale": false, "beta_initializer": {"class_name": "Zeros", "config": {"dtype": "float32"}}, "gamma_initializer": {"class_name": "Ones", "config": {"dtype": "float32"}}, "moving_mean_initializer": {"class_name": "Zeros", "config": {"dtype": "float32"}}, "moving_variance_initializer": {"class_name": "Ones", "config": {"dtype": "float32"}}, "beta_regularizer": null, "gamma_regularizer": null, "beta_constraint": null, "gamma_constraint": null}, "inbound_nodes": [[["conv2d_1291", 0, 0, {}]]]}, {"name": "activation_1282", "class_name": "Activation", "config": {"name": "activation_1282", "trainable": true, "dtype": "float32", "activation": "relu"}, "inbound_nodes": [[["batch_normalization_1282", 0, 0, {}]]]}, {"name": "activation_1285", "class_name": "Activation", "config": {"name": "activation_1285", "trainable": true, "dtype": "float32", "activation": "relu"}, "inbound_nodes": [[["batch_normalization_1285", 0, 0, {}]]]}, {"name": "activation_1290", "class_name": "Activation", "config": {"name": "activation_1290", "trainable": true, "dtype": "float32", "activation": "relu"}, "inbound_nodes": [[["batch_normalization_1290", 0, 0, {}]]]}, {"name": "activation_1291", "class_name": "Activation", "config": {"name": "activation_1291", "trainable": true, "dtype": "float32", "activation": "relu"}, "inbound_nodes": [[["batch_normalization_1291", 0, 0, {}]]]}, {"name": "mixed7", "class_name": "Concatenate", "config": {"name": "mixed7", "trainable": true, "dtype": "float32", "axis": 3}, "inbound_nodes": [[["activation_1282", 0, 0, {}], ["activation_1285", 0, 0, {}], ["activation_1290", 0, 0, {}], ["activation_1291", 0, 0, {}]]]}, {"name": "conv2d_1294", "class_name": "Conv2D", "config": {"name": "conv2d_1294", "trainable": true, "dtype": "float32", "filters": 192, "kernel_size": [1, 1], "strides": [1, 1], "padding": "same", "data_format": "channels_last", "dilation_rate": [1, 1], "activation": "linear", "use_bias": false, "kernel_initializer": {"class_name": "GlorotUniform", "config": {"seed": null, "dtype": "float32"}}, "bias_initializer": {"class_name": "Zeros", "config": {"dtype": "float32"}}, "kernel_regularizer": null, "bias_regularizer": null, "activity_regularizer": null, "kernel_constraint": null, "bias_constraint": null}, "inbound_nodes": [[["mixed7", 0, 0, {}]]]}, {"name": "batch_normalization_1294", "class_name": "BatchNormalization", "config": {"name": "batch_normalization_1294", "trainable": true, "dtype": "float32", "axis": [3], "momentum": 0.99, "epsilon": 0.001, "center": true, "scale": false, "beta_initializer": {"class_name": "Zeros", "config": {"dtype": "float32"}}, "gamma_initializer": {"class_name": "Ones", "config": {"dtype": "float32"}}, "moving_mean_initializer": {"class_name": "Zeros", "config": {"dtype": "float32"}}, "moving_variance_initializer": {"class_name": "Ones", "config": {"dtype": "float32"}}, "beta_regularizer": null, "gamma_regularizer": null, "beta_constraint": null, "gamma_constraint": null}, "inbound_nodes": [[["conv2d_1294", 0, 0, {}]]]}, {"name": "activation_1294", "class_name": "Activation", "config": {"name": "activation_1294", "trainable": true, "dtype": "float32", "activation": "relu"}, "inbound_nodes": [[["batch_normalization_1294", 0, 0, {}]]]}, {"name": "conv2d_1295", "class_name": "Conv2D", "config": {"name": "conv2d_1295", "trainable": true, "dtype": "float32", "filters": 192, "kernel_size": [1, 7], "strides": [1, 1], "padding": "same", "data_format": "channels_last", "dilation_rate": [1, 1], "activation": "linear", "use_bias": false, "kernel_initializer": {"class_name": "GlorotUniform", "config": {"seed": null, "dtype": "float32"}}, "bias_initializer": {"class_name": "Zeros", "config": {"dtype": "float32"}}, "kernel_regularizer": null, "bias_regularizer": null, "activity_regularizer": null, "kernel_constraint": null, "bias_constraint": null}, "inbound_nodes": [[["activation_1294", 0, 0, {}]]]}, {"name": "batch_normalization_1295", "class_name": "BatchNormalization", "config": {"name": "batch_normalization_1295", "trainable": true, "dtype": "float32", "axis": [3], "momentum": 0.99, "epsilon": 0.001, "center": true, "scale": false, "beta_initializer": {"class_name": "Zeros", "config": {"dtype": "float32"}}, "gamma_initializer": {"class_name": "Ones", "config": {"dtype": "float32"}}, "moving_mean_initializer": {"class_name": "Zeros", "config": {"dtype": "float32"}}, "moving_variance_initializer": {"class_name": "Ones", "config": {"dtype": "float32"}}, "beta_regularizer": null, "gamma_regularizer": null, "beta_constraint": null, "gamma_constraint": null}, "inbound_nodes": [[["conv2d_1295", 0, 0, {}]]]}, {"name": "activation_1295", "class_name": "Activation", "config": {"name": "activation_1295", "trainable": true, "dtype": "float32", "activation": "relu"}, "inbound_nodes": [[["batch_normalization_1295", 0, 0, {}]]]}, {"name": "conv2d_1292", "class_name": "Conv2D", "config": {"name": "conv2d_1292", "trainable": true, "dtype": "float32", "filters": 192, "kernel_size": [1, 1], "strides": [1, 1], "padding": "same", "data_format": "channels_last", "dilation_rate": [1, 1], "activation": "linear", "use_bias": false, "kernel_initializer": {"class_name": "GlorotUniform", "config": {"seed": null, "dtype": "float32"}}, "bias_initializer": {"class_name": "Zeros", "config": {"dtype": "float32"}}, "kernel_regularizer": null, "bias_regularizer": null, "activity_regularizer": null, "kernel_constraint": null, "bias_constraint": null}, "inbound_nodes": [[["mixed7", 0, 0, {}]]]}, {"name": "conv2d_1296", "class_name": "Conv2D", "config": {"name": "conv2d_1296", "trainable": true, "dtype": "float32", "filters": 192, "kernel_size": [7, 1], "strides": [1, 1], "padding": "same", "data_format": "channels_last", "dilation_rate": [1, 1], "activation": "linear", "use_bias": false, "kernel_initializer": {"class_name": "GlorotUniform", "config": {"seed": null, "dtype": "float32"}}, "bias_initializer": {"class_name": "Zeros", "config": {"dtype": "float32"}}, "kernel_regularizer": null, "bias_regularizer": null, "activity_regularizer": null, "kernel_constraint": null, "bias_constraint": null}, "inbound_nodes": [[["activation_1295", 0, 0, {}]]]}, {"name": "batch_normalization_1292", "class_name": "BatchNormalization", "config": {"name": "batch_normalization_1292", "trainable": true, "dtype": "float32", "axis": [3], "momentum": 0.99, "epsilon": 0.001, "center": true, "scale": false, "beta_initializer": {"class_name": "Zeros", "config": {"dtype": "float32"}}, "gamma_initializer": {"class_name": "Ones", "config": {"dtype": "float32"}}, "moving_mean_initializer": {"class_name": "Zeros", "config": {"dtype": "float32"}}, "moving_variance_initializer": {"class_name": "Ones", "config": {"dtype": "float32"}}, "beta_regularizer": null, "gamma_regularizer": null, "beta_constraint": null, "gamma_constraint": null}, "inbound_nodes": [[["conv2d_1292", 0, 0, {}]]]}, {"name": "batch_normalization_1296", "class_name": "BatchNormalization", "config": {"name": "batch_normalization_1296", "trainable": true, "dtype": "float32", "axis": [3], "momentum": 0.99, "epsilon": 0.001, "center": true, "scale": false, "beta_initializer": {"class_name": "Zeros", "config": {"dtype": "float32"}}, "gamma_initializer": {"class_name": "Ones", "config": {"dtype": "float32"}}, "moving_mean_initializer": {"class_name": "Zeros", "config": {"dtype": "float32"}}, "moving_variance_initializer": {"class_name": "Ones", "config": {"dtype": "float32"}}, "beta_regularizer": null, "gamma_regularizer": null, "beta_constraint": null, "gamma_constraint": null}, "inbound_nodes": [[["conv2d_1296", 0, 0, {}]]]}, {"name": "activation_1292", "class_name": "Activation", "config": {"name": "activation_1292", "trainable": true, "dtype": "float32", "activation": "relu"}, "inbound_nodes": [[["batch_normalization_1292", 0, 0, {}]]]}, {"name": "activation_1296", "class_name": "Activation", "config": {"name": "activation_1296", "trainable": true, "dtype": "float32", "activation": "relu"}, "inbound_nodes": [[["batch_normalization_1296", 0, 0, {}]]]}, {"name": "conv2d_1293", "class_name": "Conv2D", "config": {"name": "conv2d_1293", "trainable": true, "dtype": "float32", "filters": 320, "kernel_size": [3, 3], "strides": [2, 2], "padding": "valid", "data_format": "channels_last", "dilation_rate": [1, 1], "activation": "linear", "use_bias": false, "kernel_initializer": {"class_name": "GlorotUniform", "config": {"seed": null, "dtype": "float32"}}, "bias_initializer": {"class_name": "Zeros", "config": {"dtype": "float32"}}, "kernel_regularizer": null, "bias_regularizer": null, "activity_regularizer": null, "kernel_constraint": null, "bias_constraint": null}, "inbound_nodes": [[["activation_1292", 0, 0, {}]]]}, {"name": "conv2d_1297", "class_name": "Conv2D", "config": {"name": "conv2d_1297", "trainable": true, "dtype": "float32", "filters": 192, "kernel_size": [3, 3], "strides": [2, 2], "padding": "valid", "data_format": "channels_last", "dilation_rate": [1, 1], "activation": "linear", "use_bias": false, "kernel_initializer": {"class_name": "GlorotUniform", "config": {"seed": null, "dtype": "float32"}}, "bias_initializer": {"class_name": "Zeros", "config": {"dtype": "float32"}}, "kernel_regularizer": null, "bias_regularizer": null, "activity_regularizer": null, "kernel_constraint": null, "bias_constraint": null}, "inbound_nodes": [[["activation_1296", 0, 0, {}]]]}, {"name": "batch_normalization_1293", "class_name": "BatchNormalization", "config": {"name": "batch_normalization_1293", "trainable": true, "dtype": "float32", "axis": [3], "momentum": 0.99, "epsilon": 0.001, "center": true, "scale": false, "beta_initializer": {"class_name": "Zeros", "config": {"dtype": "float32"}}, "gamma_initializer": {"class_name": "Ones", "config": {"dtype": "float32"}}, "moving_mean_initializer": {"class_name": "Zeros", "config": {"dtype": "float32"}}, "moving_variance_initializer": {"class_name": "Ones", "config": {"dtype": "float32"}}, "beta_regularizer": null, "gamma_regularizer": null, "beta_constraint": null, "gamma_constraint": null}, "inbound_nodes": [[["conv2d_1293", 0, 0, {}]]]}, {"name": "batch_normalization_1297", "class_name": "BatchNormalization", "config": {"name": "batch_normalization_1297", "trainable": true, "dtype": "float32", "axis": [3], "momentum": 0.99, "epsilon": 0.001, "center": true, "scale": false, "beta_initializer": {"class_name": "Zeros", "config": {"dtype": "float32"}}, "gamma_initializer": {"class_name": "Ones", "config": {"dtype": "float32"}}, "moving_mean_initializer": {"class_name": "Zeros", "config": {"dtype": "float32"}}, "moving_variance_initializer": {"class_name": "Ones", "config": {"dtype": "float32"}}, "beta_regularizer": null, "gamma_regularizer": null, "beta_constraint": null, "gamma_constraint": null}, "inbound_nodes": [[["conv2d_1297", 0, 0, {}]]]}, {"name": "activation_1293", "class_name": "Activation", "config": {"name": "activation_1293", "trainable": true, "dtype": "float32", "activation": "relu"}, "inbound_nodes": [[["batch_normalization_1293", 0, 0, {}]]]}, {"name": "activation_1297", "class_name": "Activation", "config": {"name": "activation_1297", "trainable": true, "dtype": "float32", "activation": "relu"}, "inbound_nodes": [[["batch_normalization_1297", 0, 0, {}]]]}, {"name": "max_pooling2d_55", "class_name": "MaxPooling2D", "config": {"name": "max_pooling2d_55", "trainable": true, "dtype": "float32", "pool_size": [3, 3], "padding": "valid", "strides": [2, 2], "data_format": "channels_last"}, "inbound_nodes": [[["mixed7", 0, 0, {}]]]}, {"name": "mixed8", "class_name": "Concatenate", "config": {"name": "mixed8", "trainable": true, "dtype": "float32", "axis": 3}, "inbound_nodes": [[["activation_1293", 0, 0, {}], ["activation_1297", 0, 0, {}], ["max_pooling2d_55", 0, 0, {}]]]}, {"name": "conv2d_1302", "class_name": "Conv2D", "config": {"name": "conv2d_1302", "trainable": true, "dtype": "float32", "filters": 448, "kernel_size": [1, 1], "strides": [1, 1], "padding": "same", "data_format": "channels_last", "dilation_rate": [1, 1], "activation": "linear", "use_bias": false, "kernel_initializer": {"class_name": "GlorotUniform", "config": {"seed": null, "dtype": "float32"}}, "bias_initializer": {"class_name": "Zeros", "config": {"dtype": "float32"}}, "kernel_regularizer": null, "bias_regularizer": null, "activity_regularizer": null, "kernel_constraint": null, "bias_constraint": null}, "inbound_nodes": [[["mixed8", 0, 0, {}]]]}, {"name": "batch_normalization_1302", "class_name": "BatchNormalization", "config": {"name": "batch_normalization_1302", "trainable": true, "dtype": "float32", "axis": [3], "momentum": 0.99, "epsilon": 0.001, "center": true, "scale": false, "beta_initializer": {"class_name": "Zeros", "config": {"dtype": "float32"}}, "gamma_initializer": {"class_name": "Ones", "config": {"dtype": "float32"}}, "moving_mean_initializer": {"class_name": "Zeros", "config": {"dtype": "float32"}}, "moving_variance_initializer": {"class_name": "Ones", "config": {"dtype": "float32"}}, "beta_regularizer": null, "gamma_regularizer": null, "beta_constraint": null, "gamma_constraint": null}, "inbound_nodes": [[["conv2d_1302", 0, 0, {}]]]}, {"name": "activation_1302", "class_name": "Activation", "config": {"name": "activation_1302", "trainable": true, "dtype": "float32", "activation": "relu"}, "inbound_nodes": [[["batch_normalization_1302", 0, 0, {}]]]}, {"name": "conv2d_1299", "class_name": "Conv2D", "config": {"name": "conv2d_1299", "trainable": true, "dtype": "float32", "filters": 384, "kernel_size": [1, 1], "strides": [1, 1], "padding": "same", "data_format": "channels_last", "dilation_rate": [1, 1], "activation": "linear", "use_bias": false, "kernel_initializer": {"class_name": "GlorotUniform", "config": {"seed": null, "dtype": "float32"}}, "bias_initializer": {"class_name": "Zeros", "config": {"dtype": "float32"}}, "kernel_regularizer": null, "bias_regularizer": null, "activity_regularizer": null, "kernel_constraint": null, "bias_constraint": null}, "inbound_nodes": [[["mixed8", 0, 0, {}]]]}, {"name": "conv2d_1303", "class_name": "Conv2D", "config": {"name": "conv2d_1303", "trainable": true, "dtype": "float32", "filters": 384, "kernel_size": [3, 3], "strides": [1, 1], "padding": "same", "data_format": "channels_last", "dilation_rate": [1, 1], "activation": "linear", "use_bias": false, "kernel_initializer": {"class_name": "GlorotUniform", "config": {"seed": null, "dtype": "float32"}}, "bias_initializer": {"class_name": "Zeros", "config": {"dtype": "float32"}}, "kernel_regularizer": null, "bias_regularizer": null, "activity_regularizer": null, "kernel_constraint": null, "bias_constraint": null}, "inbound_nodes": [[["activation_1302", 0, 0, {}]]]}, {"name": "batch_normalization_1299", "class_name": "BatchNormalization", "config": {"name": "batch_normalization_1299", "trainable": true, "dtype": "float32", "axis": [3], "momentum": 0.99, "epsilon": 0.001, "center": true, "scale": false, "beta_initializer": {"class_name": "Zeros", "config": {"dtype": "float32"}}, "gamma_initializer": {"class_name": "Ones", "config": {"dtype": "float32"}}, "moving_mean_initializer": {"class_name": "Zeros", "config": {"dtype": "float32"}}, "moving_variance_initializer": {"class_name": "Ones", "config": {"dtype": "float32"}}, "beta_regularizer": null, "gamma_regularizer": null, "beta_constraint": null, "gamma_constraint": null}, "inbound_nodes": [[["conv2d_1299", 0, 0, {}]]]}, {"name": "batch_normalization_1303", "class_name": "BatchNormalization", "config": {"name": "batch_normalization_1303", "trainable": true, "dtype": "float32", "axis": [3], "momentum": 0.99, "epsilon": 0.001, "center": true, "scale": false, "beta_initializer": {"class_name": "Zeros", "config": {"dtype": "float32"}}, "gamma_initializer": {"class_name": "Ones", "config": {"dtype": "float32"}}, "moving_mean_initializer": {"class_name": "Zeros", "config": {"dtype": "float32"}}, "moving_variance_initializer": {"class_name": "Ones", "config": {"dtype": "float32"}}, "beta_regularizer": null, "gamma_regularizer": null, "beta_constraint": null, "gamma_constraint": null}, "inbound_nodes": [[["conv2d_1303", 0, 0, {}]]]}, {"name": "activation_1299", "class_name": "Activation", "config": {"name": "activation_1299", "trainable": true, "dtype": "float32", "activation": "relu"}, "inbound_nodes": [[["batch_normalization_1299", 0, 0, {}]]]}, {"name": "activation_1303", "class_name": "Activation", "config": {"name": "activation_1303", "trainable": true, "dtype": "float32", "activation": "relu"}, "inbound_nodes": [[["batch_normalization_1303", 0, 0, {}]]]}, {"name": "conv2d_1300", "class_name": "Conv2D", "config": {"name": "conv2d_1300", "trainable": true, "dtype": "float32", "filters": 384, "kernel_size": [1, 3], "strides": [1, 1], "padding": "same", "data_format": "channels_last", "dilation_rate": [1, 1], "activation": "linear", "use_bias": false, "kernel_initializer": {"class_name": "GlorotUniform", "config": {"seed": null, "dtype": "float32"}}, "bias_initializer": {"class_name": "Zeros", "config": {"dtype": "float32"}}, "kernel_regularizer": null, "bias_regularizer": null, "activity_regularizer": null, "kernel_constraint": null, "bias_constraint": null}, "inbound_nodes": [[["activation_1299", 0, 0, {}]]]}, {"name": "conv2d_1301", "class_name": "Conv2D", "config": {"name": "conv2d_1301", "trainable": true, "dtype": "float32", "filters": 384, "kernel_size": [3, 1], "strides": [1, 1], "padding": "same", "data_format": "channels_last", "dilation_rate": [1, 1], "activation": "linear", "use_bias": false, "kernel_initializer": {"class_name": "GlorotUniform", "config": {"seed": null, "dtype": "float32"}}, "bias_initializer": {"class_name": "Zeros", "config": {"dtype": "float32"}}, "kernel_regularizer": null, "bias_regularizer": null, "activity_regularizer": null, "kernel_constraint": null, "bias_constraint": null}, "inbound_nodes": [[["activation_1299", 0, 0, {}]]]}, {"name": "conv2d_1304", "class_name": "Conv2D", "config": {"name": "conv2d_1304", "trainable": true, "dtype": "float32", "filters": 384, "kernel_size": [1, 3], "strides": [1, 1], "padding": "same", "data_format": "channels_last", "dilation_rate": [1, 1], "activation": "linear", "use_bias": false, "kernel_initializer": {"class_name": "GlorotUniform", "config": {"seed": null, "dtype": "float32"}}, "bias_initializer": {"class_name": "Zeros", "config": {"dtype": "float32"}}, "kernel_regularizer": null, "bias_regularizer": null, "activity_regularizer": null, "kernel_constraint": null, "bias_constraint": null}, "inbound_nodes": [[["activation_1303", 0, 0, {}]]]}, {"name": "conv2d_1305", "class_name": "Conv2D", "config": {"name": "conv2d_1305", "trainable": true, "dtype": "float32", "filters": 384, "kernel_size": [3, 1], "strides": [1, 1], "padding": "same", "data_format": "channels_last", "dilation_rate": [1, 1], "activation": "linear", "use_bias": false, "kernel_initializer": {"class_name": "GlorotUniform", "config": {"seed": null, "dtype": "float32"}}, "bias_initializer": {"class_name": "Zeros", "config": {"dtype": "float32"}}, "kernel_regularizer": null, "bias_regularizer": null, "activity_regularizer": null, "kernel_constraint": null, "bias_constraint": null}, "inbound_nodes": [[["activation_1303", 0, 0, {}]]]}, {"name": "average_pooling2d_124", "class_name": "AveragePooling2D", "config": {"name": "average_pooling2d_124", "trainable": true, "dtype": "float32", "pool_size": [3, 3], "padding": "same", "strides": [1, 1], "data_format": "channels_last"}, "inbound_nodes": [[["mixed8", 0, 0, {}]]]}, {"name": "conv2d_1298", "class_name": "Conv2D", "config": {"name": "conv2d_1298", "trainable": true, "dtype": "float32", "filters": 320, "kernel_size": [1, 1], "strides": [1, 1], "padding": "same", "data_format": "channels_last", "dilation_rate": [1, 1], "activation": "linear", "use_bias": false, "kernel_initializer": {"class_name": "GlorotUniform", "config": {"seed": null, "dtype": "float32"}}, "bias_initializer": {"class_name": "Zeros", "config": {"dtype": "float32"}}, "kernel_regularizer": null, "bias_regularizer": null, "activity_regularizer": null, "kernel_constraint": null, "bias_constraint": null}, "inbound_nodes": [[["mixed8", 0, 0, {}]]]}, {"name": "batch_normalization_1300", "class_name": "BatchNormalization", "config": {"name": "batch_normalization_1300", "trainable": true, "dtype": "float32", "axis": [3], "momentum": 0.99, "epsilon": 0.001, "center": true, "scale": false, "beta_initializer": {"class_name": "Zeros", "config": {"dtype": "float32"}}, "gamma_initializer": {"class_name": "Ones", "config": {"dtype": "float32"}}, "moving_mean_initializer": {"class_name": "Zeros", "config": {"dtype": "float32"}}, "moving_variance_initializer": {"class_name": "Ones", "config": {"dtype": "float32"}}, "beta_regularizer": null, "gamma_regularizer": null, "beta_constraint": null, "gamma_constraint": null}, "inbound_nodes": [[["conv2d_1300", 0, 0, {}]]]}, {"name": "batch_normalization_1301", "class_name": "BatchNormalization", "config": {"name": "batch_normalization_1301", "trainable": true, "dtype": "float32", "axis": [3], "momentum": 0.99, "epsilon": 0.001, "center": true, "scale": false, "beta_initializer": {"class_name": "Zeros", "config": {"dtype": "float32"}}, "gamma_initializer": {"class_name": "Ones", "config": {"dtype": "float32"}}, "moving_mean_initializer": {"class_name": "Zeros", "config": {"dtype": "float32"}}, "moving_variance_initializer": {"class_name": "Ones", "config": {"dtype": "float32"}}, "beta_regularizer": null, "gamma_regularizer": null, "beta_constraint": null, "gamma_constraint": null}, "inbound_nodes": [[["conv2d_1301", 0, 0, {}]]]}, {"name": "batch_normalization_1304", "class_name": "BatchNormalization", "config": {"name": "batch_normalization_1304", "trainable": true, "dtype": "float32", "axis": [3], "momentum": 0.99, "epsilon": 0.001, "center": true, "scale": false, "beta_initializer": {"class_name": "Zeros", "config": {"dtype": "float32"}}, "gamma_initializer": {"class_name": "Ones", "config": {"dtype": "float32"}}, "moving_mean_initializer": {"class_name": "Zeros", "config": {"dtype": "float32"}}, "moving_variance_initializer": {"class_name": "Ones", "config": {"dtype": "float32"}}, "beta_regularizer": null, "gamma_regularizer": null, "beta_constraint": null, "gamma_constraint": null}, "inbound_nodes": [[["conv2d_1304", 0, 0, {}]]]}, {"name": "batch_normalization_1305", "class_name": "BatchNormalization", "config": {"name": "batch_normalization_1305", "trainable": true, "dtype": "float32", "axis": [3], "momentum": 0.99, "epsilon": 0.001, "center": true, "scale": false, "beta_initializer": {"class_name": "Zeros", "config": {"dtype": "float32"}}, "gamma_initializer": {"class_name": "Ones", "config": {"dtype": "float32"}}, "moving_mean_initializer": {"class_name": "Zeros", "config": {"dtype": "float32"}}, "moving_variance_initializer": {"class_name": "Ones", "config": {"dtype": "float32"}}, "beta_regularizer": null, "gamma_regularizer": null, "beta_constraint": null, "gamma_constraint": null}, "inbound_nodes": [[["conv2d_1305", 0, 0, {}]]]}, {"name": "conv2d_1306", "class_name": "Conv2D", "config": {"name": "conv2d_1306", "trainable": true, "dtype": "float32", "filters": 192, "kernel_size": [1, 1], "strides": [1, 1], "padding": "same", "data_format": "channels_last", "dilation_rate": [1, 1], "activation": "linear", "use_bias": false, "kernel_initializer": {"class_name": "GlorotUniform", "config": {"seed": null, "dtype": "float32"}}, "bias_initializer": {"class_name": "Zeros", "config": {"dtype": "float32"}}, "kernel_regularizer": null, "bias_regularizer": null, "activity_regularizer": null, "kernel_constraint": null, "bias_constraint": null}, "inbound_nodes": [[["average_pooling2d_124", 0, 0, {}]]]}, {"name": "batch_normalization_1298", "class_name": "BatchNormalization", "config": {"name": "batch_normalization_1298", "trainable": true, "dtype": "float32", "axis": [3], "momentum": 0.99, "epsilon": 0.001, "center": true, "scale": false, "beta_initializer": {"class_name": "Zeros", "config": {"dtype": "float32"}}, "gamma_initializer": {"class_name": "Ones", "config": {"dtype": "float32"}}, "moving_mean_initializer": {"class_name": "Zeros", "config": {"dtype": "float32"}}, "moving_variance_initializer": {"class_name": "Ones", "config": {"dtype": "float32"}}, "beta_regularizer": null, "gamma_regularizer": null, "beta_constraint": null, "gamma_constraint": null}, "inbound_nodes": [[["conv2d_1298", 0, 0, {}]]]}, {"name": "activation_1300", "class_name": "Activation", "config": {"name": "activation_1300", "trainable": true, "dtype": "float32", "activation": "relu"}, "inbound_nodes": [[["batch_normalization_1300", 0, 0, {}]]]}, {"name": "activation_1301", "class_name": "Activation", "config": {"name": "activation_1301", "trainable": true, "dtype": "float32", "activation": "relu"}, "inbound_nodes": [[["batch_normalization_1301", 0, 0, {}]]]}, {"name": "activation_1304", "class_name": "Activation", "config": {"name": "activation_1304", "trainable": true, "dtype": "float32", "activation": "relu"}, "inbound_nodes": [[["batch_normalization_1304", 0, 0, {}]]]}, {"name": "activation_1305", "class_name": "Activation", "config": {"name": "activation_1305", "trainable": true, "dtype": "float32", "activation": "relu"}, "inbound_nodes": [[["batch_normalization_1305", 0, 0, {}]]]}, {"name": "batch_normalization_1306", "class_name": "BatchNormalization", "config": {"name": "batch_normalization_1306", "trainable": true, "dtype": "float32", "axis": [3], "momentum": 0.99, "epsilon": 0.001, "center": true, "scale": false, "beta_initializer": {"class_name": "Zeros", "config": {"dtype": "float32"}}, "gamma_initializer": {"class_name": "Ones", "config": {"dtype": "float32"}}, "moving_mean_initializer": {"class_name": "Zeros", "config": {"dtype": "float32"}}, "moving_variance_initializer": {"class_name": "Ones", "config": {"dtype": "float32"}}, "beta_regularizer": null, "gamma_regularizer": null, "beta_constraint": null, "gamma_constraint": null}, "inbound_nodes": [[["conv2d_1306", 0, 0, {}]]]}, {"name": "activation_1298", "class_name": "Activation", "config": {"name": "activation_1298", "trainable": true, "dtype": "float32", "activation": "relu"}, "inbound_nodes": [[["batch_normalization_1298", 0, 0, {}]]]}, {"name": "mixed9_0", "class_name": "Concatenate", "config": {"name": "mixed9_0", "trainable": true, "dtype": "float32", "axis": 3}, "inbound_nodes": [[["activation_1300", 0, 0, {}], ["activation_1301", 0, 0, {}]]]}, {"name": "concatenate_26", "class_name": "Concatenate", "config": {"name": "concatenate_26", "trainable": true, "dtype": "float32", "axis": 3}, "inbound_nodes": [[["activation_1304", 0, 0, {}], ["activation_1305", 0, 0, {}]]]}, {"name": "activation_1306", "class_name": "Activation", "config": {"name": "activation_1306", "trainable": true, "dtype": "float32", "activation": "relu"}, "inbound_nodes": [[["batch_normalization_1306", 0, 0, {}]]]}, {"name": "mixed9", "class_name": "Concatenate", "config": {"name": "mixed9", "trainable": true, "dtype": "float32", "axis": 3}, "inbound_nodes": [[["activation_1298", 0, 0, {}], ["mixed9_0", 0, 0, {}], ["concatenate_26", 0, 0, {}], ["activation_1306", 0, 0, {}]]]}, {"name": "conv2d_1311", "class_name": "Conv2D", "config": {"name": "conv2d_1311", "trainable": true, "dtype": "float32", "filters": 448, "kernel_size": [1, 1], "strides": [1, 1], "padding": "same", "data_format": "channels_last", "dilation_rate": [1, 1], "activation": "linear", "use_bias": false, "kernel_initializer": {"class_name": "GlorotUniform", "config": {"seed": null, "dtype": "float32"}}, "bias_initializer": {"class_name": "Zeros", "config": {"dtype": "float32"}}, "kernel_regularizer": null, "bias_regularizer": null, "activity_regularizer": null, "kernel_constraint": null, "bias_constraint": null}, "inbound_nodes": [[["mixed9", 0, 0, {}]]]}, {"name": "batch_normalization_1311", "class_name": "BatchNormalization", "config": {"name": "batch_normalization_1311", "trainable": true, "dtype": "float32", "axis": [3], "momentum": 0.99, "epsilon": 0.001, "center": true, "scale": false, "beta_initializer": {"class_name": "Zeros", "config": {"dtype": "float32"}}, "gamma_initializer": {"class_name": "Ones", "config": {"dtype": "float32"}}, "moving_mean_initializer": {"class_name": "Zeros", "config": {"dtype": "float32"}}, "moving_variance_initializer": {"class_name": "Ones", "config": {"dtype": "float32"}}, "beta_regularizer": null, "gamma_regularizer": null, "beta_constraint": null, "gamma_constraint": null}, "inbound_nodes": [[["conv2d_1311", 0, 0, {}]]]}, {"name": "activation_1311", "class_name": "Activation", "config": {"name": "activation_1311", "trainable": true, "dtype": "float32", "activation": "relu"}, "inbound_nodes": [[["batch_normalization_1311", 0, 0, {}]]]}, {"name": "conv2d_1308", "class_name": "Conv2D", "config": {"name": "conv2d_1308", "trainable": true, "dtype": "float32", "filters": 384, "kernel_size": [1, 1], "strides": [1, 1], "padding": "same", "data_format": "channels_last", "dilation_rate": [1, 1], "activation": "linear", "use_bias": false, "kernel_initializer": {"class_name": "GlorotUniform", "config": {"seed": null, "dtype": "float32"}}, "bias_initializer": {"class_name": "Zeros", "config": {"dtype": "float32"}}, "kernel_regularizer": null, "bias_regularizer": null, "activity_regularizer": null, "kernel_constraint": null, "bias_constraint": null}, "inbound_nodes": [[["mixed9", 0, 0, {}]]]}, {"name": "conv2d_1312", "class_name": "Conv2D", "config": {"name": "conv2d_1312", "trainable": true, "dtype": "float32", "filters": 384, "kernel_size": [3, 3], "strides": [1, 1], "padding": "same", "data_format": "channels_last", "dilation_rate": [1, 1], "activation": "linear", "use_bias": false, "kernel_initializer": {"class_name": "GlorotUniform", "config": {"seed": null, "dtype": "float32"}}, "bias_initializer": {"class_name": "Zeros", "config": {"dtype": "float32"}}, "kernel_regularizer": null, "bias_regularizer": null, "activity_regularizer": null, "kernel_constraint": null, "bias_constraint": null}, "inbound_nodes": [[["activation_1311", 0, 0, {}]]]}, {"name": "batch_normalization_1308", "class_name": "BatchNormalization", "config": {"name": "batch_normalization_1308", "trainable": true, "dtype": "float32", "axis": [3], "momentum": 0.99, "epsilon": 0.001, "center": true, "scale": false, "beta_initializer": {"class_name": "Zeros", "config": {"dtype": "float32"}}, "gamma_initializer": {"class_name": "Ones", "config": {"dtype": "float32"}}, "moving_mean_initializer": {"class_name": "Zeros", "config": {"dtype": "float32"}}, "moving_variance_initializer": {"class_name": "Ones", "config": {"dtype": "float32"}}, "beta_regularizer": null, "gamma_regularizer": null, "beta_constraint": null, "gamma_constraint": null}, "inbound_nodes": [[["conv2d_1308", 0, 0, {}]]]}, {"name": "batch_normalization_1312", "class_name": "BatchNormalization", "config": {"name": "batch_normalization_1312", "trainable": true, "dtype": "float32", "axis": [3], "momentum": 0.99, "epsilon": 0.001, "center": true, "scale": false, "beta_initializer": {"class_name": "Zeros", "config": {"dtype": "float32"}}, "gamma_initializer": {"class_name": "Ones", "config": {"dtype": "float32"}}, "moving_mean_initializer": {"class_name": "Zeros", "config": {"dtype": "float32"}}, "moving_variance_initializer": {"class_name": "Ones", "config": {"dtype": "float32"}}, "beta_regularizer": null, "gamma_regularizer": null, "beta_constraint": null, "gamma_constraint": null}, "inbound_nodes": [[["conv2d_1312", 0, 0, {}]]]}, {"name": "activation_1308", "class_name": "Activation", "config": {"name": "activation_1308", "trainable": true, "dtype": "float32", "activation": "relu"}, "inbound_nodes": [[["batch_normalization_1308", 0, 0, {}]]]}, {"name": "activation_1312", "class_name": "Activation", "config": {"name": "activation_1312", "trainable": true, "dtype": "float32", "activation": "relu"}, "inbound_nodes": [[["batch_normalization_1312", 0, 0, {}]]]}, {"name": "conv2d_1309", "class_name": "Conv2D", "config": {"name": "conv2d_1309", "trainable": true, "dtype": "float32", "filters": 384, "kernel_size": [1, 3], "strides": [1, 1], "padding": "same", "data_format": "channels_last", "dilation_rate": [1, 1], "activation": "linear", "use_bias": false, "kernel_initializer": {"class_name": "GlorotUniform", "config": {"seed": null, "dtype": "float32"}}, "bias_initializer": {"class_name": "Zeros", "config": {"dtype": "float32"}}, "kernel_regularizer": null, "bias_regularizer": null, "activity_regularizer": null, "kernel_constraint": null, "bias_constraint": null}, "inbound_nodes": [[["activation_1308", 0, 0, {}]]]}, {"name": "conv2d_1310", "class_name": "Conv2D", "config": {"name": "conv2d_1310", "trainable": true, "dtype": "float32", "filters": 384, "kernel_size": [3, 1], "strides": [1, 1], "padding": "same", "data_format": "channels_last", "dilation_rate": [1, 1], "activation": "linear", "use_bias": false, "kernel_initializer": {"class_name": "GlorotUniform", "config": {"seed": null, "dtype": "float32"}}, "bias_initializer": {"class_name": "Zeros", "config": {"dtype": "float32"}}, "kernel_regularizer": null, "bias_regularizer": null, "activity_regularizer": null, "kernel_constraint": null, "bias_constraint": null}, "inbound_nodes": [[["activation_1308", 0, 0, {}]]]}, {"name": "conv2d_1313", "class_name": "Conv2D", "config": {"name": "conv2d_1313", "trainable": true, "dtype": "float32", "filters": 384, "kernel_size": [1, 3], "strides": [1, 1], "padding": "same", "data_format": "channels_last", "dilation_rate": [1, 1], "activation": "linear", "use_bias": false, "kernel_initializer": {"class_name": "GlorotUniform", "config": {"seed": null, "dtype": "float32"}}, "bias_initializer": {"class_name": "Zeros", "config": {"dtype": "float32"}}, "kernel_regularizer": null, "bias_regularizer": null, "activity_regularizer": null, "kernel_constraint": null, "bias_constraint": null}, "inbound_nodes": [[["activation_1312", 0, 0, {}]]]}, {"name": "conv2d_1314", "class_name": "Conv2D", "config": {"name": "conv2d_1314", "trainable": true, "dtype": "float32", "filters": 384, "kernel_size": [3, 1], "strides": [1, 1], "padding": "same", "data_format": "channels_last", "dilation_rate": [1, 1], "activation": "linear", "use_bias": false, "kernel_initializer": {"class_name": "GlorotUniform", "config": {"seed": null, "dtype": "float32"}}, "bias_initializer": {"class_name": "Zeros", "config": {"dtype": "float32"}}, "kernel_regularizer": null, "bias_regularizer": null, "activity_regularizer": null, "kernel_constraint": null, "bias_constraint": null}, "inbound_nodes": [[["activation_1312", 0, 0, {}]]]}, {"name": "average_pooling2d_125", "class_name": "AveragePooling2D", "config": {"name": "average_pooling2d_125", "trainable": true, "dtype": "float32", "pool_size": [3, 3], "padding": "same", "strides": [1, 1], "data_format": "channels_last"}, "inbound_nodes": [[["mixed9", 0, 0, {}]]]}, {"name": "conv2d_1307", "class_name": "Conv2D", "config": {"name": "conv2d_1307", "trainable": true, "dtype": "float32", "filters": 320, "kernel_size": [1, 1], "strides": [1, 1], "padding": "same", "data_format": "channels_last", "dilation_rate": [1, 1], "activation": "linear", "use_bias": false, "kernel_initializer": {"class_name": "GlorotUniform", "config": {"seed": null, "dtype": "float32"}}, "bias_initializer": {"class_name": "Zeros", "config": {"dtype": "float32"}}, "kernel_regularizer": null, "bias_regularizer": null, "activity_regularizer": null, "kernel_constraint": null, "bias_constraint": null}, "inbound_nodes": [[["mixed9", 0, 0, {}]]]}, {"name": "batch_normalization_1309", "class_name": "BatchNormalization", "config": {"name": "batch_normalization_1309", "trainable": true, "dtype": "float32", "axis": [3], "momentum": 0.99, "epsilon": 0.001, "center": true, "scale": false, "beta_initializer": {"class_name": "Zeros", "config": {"dtype": "float32"}}, "gamma_initializer": {"class_name": "Ones", "config": {"dtype": "float32"}}, "moving_mean_initializer": {"class_name": "Zeros", "config": {"dtype": "float32"}}, "moving_variance_initializer": {"class_name": "Ones", "config": {"dtype": "float32"}}, "beta_regularizer": null, "gamma_regularizer": null, "beta_constraint": null, "gamma_constraint": null}, "inbound_nodes": [[["conv2d_1309", 0, 0, {}]]]}, {"name": "batch_normalization_1310", "class_name": "BatchNormalization", "config": {"name": "batch_normalization_1310", "trainable": true, "dtype": "float32", "axis": [3], "momentum": 0.99, "epsilon": 0.001, "center": true, "scale": false, "beta_initializer": {"class_name": "Zeros", "config": {"dtype": "float32"}}, "gamma_initializer": {"class_name": "Ones", "config": {"dtype": "float32"}}, "moving_mean_initializer": {"class_name": "Zeros", "config": {"dtype": "float32"}}, "moving_variance_initializer": {"class_name": "Ones", "config": {"dtype": "float32"}}, "beta_regularizer": null, "gamma_regularizer": null, "beta_constraint": null, "gamma_constraint": null}, "inbound_nodes": [[["conv2d_1310", 0, 0, {}]]]}, {"name": "batch_normalization_1313", "class_name": "BatchNormalization", "config": {"name": "batch_normalization_1313", "trainable": true, "dtype": "float32", "axis": [3], "momentum": 0.99, "epsilon": 0.001, "center": true, "scale": false, "beta_initializer": {"class_name": "Zeros", "config": {"dtype": "float32"}}, "gamma_initializer": {"class_name": "Ones", "config": {"dtype": "float32"}}, "moving_mean_initializer": {"class_name": "Zeros", "config": {"dtype": "float32"}}, "moving_variance_initializer": {"class_name": "Ones", "config": {"dtype": "float32"}}, "beta_regularizer": null, "gamma_regularizer": null, "beta_constraint": null, "gamma_constraint": null}, "inbound_nodes": [[["conv2d_1313", 0, 0, {}]]]}, {"name": "batch_normalization_1314", "class_name": "BatchNormalization", "config": {"name": "batch_normalization_1314", "trainable": true, "dtype": "float32", "axis": [3], "momentum": 0.99, "epsilon": 0.001, "center": true, "scale": false, "beta_initializer": {"class_name": "Zeros", "config": {"dtype": "float32"}}, "gamma_initializer": {"class_name": "Ones", "config": {"dtype": "float32"}}, "moving_mean_initializer": {"class_name": "Zeros", "config": {"dtype": "float32"}}, "moving_variance_initializer": {"class_name": "Ones", "config": {"dtype": "float32"}}, "beta_regularizer": null, "gamma_regularizer": null, "beta_constraint": null, "gamma_constraint": null}, "inbound_nodes": [[["conv2d_1314", 0, 0, {}]]]}, {"name": "conv2d_1315", "class_name": "Conv2D", "config": {"name": "conv2d_1315", "trainable": true, "dtype": "float32", "filters": 192, "kernel_size": [1, 1], "strides": [1, 1], "padding": "same", "data_format": "channels_last", "dilation_rate": [1, 1], "activation": "linear", "use_bias": false, "kernel_initializer": {"class_name": "GlorotUniform", "config": {"seed": null, "dtype": "float32"}}, "bias_initializer": {"class_name": "Zeros", "config": {"dtype": "float32"}}, "kernel_regularizer": null, "bias_regularizer": null, "activity_regularizer": null, "kernel_constraint": null, "bias_constraint": null}, "inbound_nodes": [[["average_pooling2d_125", 0, 0, {}]]]}, {"name": "batch_normalization_1307", "class_name": "BatchNormalization", "config": {"name": "batch_normalization_1307", "trainable": true, "dtype": "float32", "axis": [3], "momentum": 0.99, "epsilon": 0.001, "center": true, "scale": false, "beta_initializer": {"class_name": "Zeros", "config": {"dtype": "float32"}}, "gamma_initializer": {"class_name": "Ones", "config": {"dtype": "float32"}}, "moving_mean_initializer": {"class_name": "Zeros", "config": {"dtype": "float32"}}, "moving_variance_initializer": {"class_name": "Ones", "config": {"dtype": "float32"}}, "beta_regularizer": null, "gamma_regularizer": null, "beta_constraint": null, "gamma_constraint": null}, "inbound_nodes": [[["conv2d_1307", 0, 0, {}]]]}, {"name": "activation_1309", "class_name": "Activation", "config": {"name": "activation_1309", "trainable": true, "dtype": "float32", "activation": "relu"}, "inbound_nodes": [[["batch_normalization_1309", 0, 0, {}]]]}, {"name": "activation_1310", "class_name": "Activation", "config": {"name": "activation_1310", "trainable": true, "dtype": "float32", "activation": "relu"}, "inbound_nodes": [[["batch_normalization_1310", 0, 0, {}]]]}, {"name": "activation_1313", "class_name": "Activation", "config": {"name": "activation_1313", "trainable": true, "dtype": "float32", "activation": "relu"}, "inbound_nodes": [[["batch_normalization_1313", 0, 0, {}]]]}, {"name": "activation_1314", "class_name": "Activation", "config": {"name": "activation_1314", "trainable": true, "dtype": "float32", "activation": "relu"}, "inbound_nodes": [[["batch_normalization_1314", 0, 0, {}]]]}, {"name": "batch_normalization_1315", "class_name": "BatchNormalization", "config": {"name": "batch_normalization_1315", "trainable": true, "dtype": "float32", "axis": [3], "momentum": 0.99, "epsilon": 0.001, "center": true, "scale": false, "beta_initializer": {"class_name": "Zeros", "config": {"dtype": "float32"}}, "gamma_initializer": {"class_name": "Ones", "config": {"dtype": "float32"}}, "moving_mean_initializer": {"class_name": "Zeros", "config": {"dtype": "float32"}}, "moving_variance_initializer": {"class_name": "Ones", "config": {"dtype": "float32"}}, "beta_regularizer": null, "gamma_regularizer": null, "beta_constraint": null, "gamma_constraint": null}, "inbound_nodes": [[["conv2d_1315", 0, 0, {}]]]}, {"name": "activation_1307", "class_name": "Activation", "config": {"name": "activation_1307", "trainable": true, "dtype": "float32", "activation": "relu"}, "inbound_nodes": [[["batch_normalization_1307", 0, 0, {}]]]}, {"name": "mixed9_1", "class_name": "Concatenate", "config": {"name": "mixed9_1", "trainable": true, "dtype": "float32", "axis": 3}, "inbound_nodes": [[["activation_1309", 0, 0, {}], ["activation_1310", 0, 0, {}]]]}, {"name": "concatenate_27", "class_name": "Concatenate", "config": {"name": "concatenate_27", "trainable": true, "dtype": "float32", "axis": 3}, "inbound_nodes": [[["activation_1313", 0, 0, {}], ["activation_1314", 0, 0, {}]]]}, {"name": "activation_1315", "class_name": "Activation", "config": {"name": "activation_1315", "trainable": true, "dtype": "float32", "activation": "relu"}, "inbound_nodes": [[["batch_normalization_1315", 0, 0, {}]]]}, {"name": "mixed10", "class_name": "Concatenate", "config": {"name": "mixed10", "trainable": true, "dtype": "float32", "axis": 3}, "inbound_nodes": [[["activation_1307", 0, 0, {}], ["mixed9_1", 0, 0, {}], ["concatenate_27", 0, 0, {}], ["activation_1315", 0, 0, {}]]]}, {"name": "global_average_pooling2d_3", "class_name": "GlobalAveragePooling2D", "config": {"name": "global_average_pooling2d_3", "trainable": true, "dtype": "float32", "data_format": "channels_last"}, "inbound_nodes": [[["mixed10", 0, 0, {}]]]}, {"name": "dense_32", "class_name": "Dense", "config": {"name": "dense_32", "trainable": true, "dtype": "float32", "units": 1024, "activation": "relu", "use_bias": true, "kernel_initializer": {"class_name": "GlorotUniform", "config": {"seed": null, "dtype": "float32"}}, "bias_initializer": {"class_name": "Zeros", "config": {"dtype": "float32"}}, "kernel_regularizer": null, "bias_regularizer": null, "activity_regularizer": null, "kernel_constraint": null, "bias_constraint": null}, "inbound_nodes": [[["global_average_pooling2d_3", 0, 0, {}]]]}, {"name": "dense_33", "class_name": "Dense", "config": {"name": "dense_33", "trainable": true, "dtype": "float32", "units": 29, "activation": "softmax", "use_bias": true, "kernel_initializer": {"class_name": "GlorotUniform", "config": {"seed": null, "dtype": "float32"}}, "bias_initializer": {"class_name": "Zeros", "config": {"dtype": "float32"}}, "kernel_regularizer": null, "bias_regularizer": null, "activity_regularizer": null, "kernel_constraint": null, "bias_constraint": null}, "inbound_nodes": [[["dense_32", 0, 0, {}]]]}], "input_layers": [["input_14", 0, 0]], "output_layers": [["dense_33", 0, 0]]}}, "training_config": {"loss": "categorical_crossentropy", "metrics": ["acc"], "weighted_metrics": null, "sample_weight_mode": null, "loss_weights": null, "optimizer_config": {"class_name": "SGD", "config": {"name": "SGD", "learning_rate": 9.999999747378752e-05, "decay": 0.0, "momentum": 0.8999999761581421, "nesterov": false}}}}, "weightsManifest": [{"paths": ["group1-shard1of23.bin", "group1-shard2of23.bin", "group1-shard3of23.bin", "group1-shard4of23.bin", "group1-shard5of23.bin", "group1-shard6of23.bin", "group1-shard7of23.bin", "group1-shard8of23.bin", "group1-shard9of23.bin", "group1-shard10of23.bin", "group1-shard11of23.bin", "group1-shard12of23.bin", "group1-shard13of23.bin", "group1-shard14of23.bin", "group1-shard15of23.bin", "group1-shard16of23.bin", "group1-shard17of23.bin", "group1-shard18of23.bin", "group1-shard19of23.bin", "group1-shard20of23.bin", "group1-shard21of23.bin", "group1-shard22of23.bin", "group1-shard23of23.bin"], "weights": [{"name": "batch_normalization_1222/beta", "shape": [32], "dtype": "float32"}, {"name": "batch_normalization_1222/moving_mean", "shape": [32], "dtype": "float32"}, {"name": "batch_normalization_1222/moving_variance", "shape": [32], "dtype": "float32"}, {"name": "batch_normalization_1223/beta", "shape": [32], "dtype": "float32"}, {"name": "batch_normalization_1223/moving_mean", "shape": [32], "dtype": "float32"}, {"name": "batch_normalization_1223/moving_variance", "shape": [32], "dtype": "float32"}, {"name": "batch_normalization_1224/beta", "shape": [64], "dtype": "float32"}, {"name": "batch_normalization_1224/moving_mean", "shape": [64], "dtype": "float32"}, {"name": "batch_normalization_1224/moving_variance", "shape": [64], "dtype": "float32"}, {"name": "batch_normalization_1225/beta", "shape": [80], "dtype": "float32"}, {"name": "batch_normalization_1225/moving_mean", "shape": [80], "dtype": "float32"}, {"name": "batch_normalization_1225/moving_variance", "shape": [80], "dtype": "float32"}, {"name": "batch_normalization_1226/beta", "shape": [192], "dtype": "float32"}, {"name": "batch_normalization_1226/moving_mean", "shape": [192], "dtype": "float32"}, {"name": "batch_normalization_1226/moving_variance", "shape": [192], "dtype": "float32"}, {"name": "batch_normalization_1227/beta", "shape": [64], "dtype": "float32"}, {"name": "batch_normalization_1227/moving_mean", "shape": [64], "dtype": "float32"}, {"name": "batch_normalization_1227/moving_variance", "shape": [64], "dtype": "float32"}, {"name": "batch_normalization_1228/beta", "shape": [48], "dtype": "float32"}, {"name": "batch_normalization_1228/moving_mean", "shape": [48], "dtype": "float32"}, {"name": "batch_normalization_1228/moving_variance", "shape": [48], "dtype": "float32"}, {"name": "batch_normalization_1229/beta", "shape": [64], "dtype": "float32"}, {"name": "batch_normalization_1229/moving_mean", "shape": [64], "dtype": "float32"}, {"name": "batch_normalization_1229/moving_variance", "shape": [64], "dtype": "float32"}, {"name": "batch_normalization_1230/beta", "shape": [64], "dtype": "float32"}, {"name": "batch_normalization_1230/moving_mean", "shape": [64], "dtype": "float32"}, {"name": "batch_normalization_1230/moving_variance", "shape": [64], "dtype": "float32"}, {"name": "batch_normalization_1231/beta", "shape": [96], "dtype": "float32"}, {"name": "batch_normalization_1231/moving_mean", "shape": [96], "dtype": "float32"}, {"name": "batch_normalization_1231/moving_variance", "shape": [96], "dtype": "float32"}, {"name": "batch_normalization_1232/beta", "shape": [96], "dtype": "float32"}, {"name": "batch_normalization_1232/moving_mean", "shape": [96], "dtype": "float32"}, {"name": "batch_normalization_1232/moving_variance", "shape": [96], "dtype": "float32"}, {"name": "batch_normalization_1233/beta", "shape": [32], "dtype": "float32"}, {"name": "batch_normalization_1233/moving_mean", "shape": [32], "dtype": "float32"}, {"name": "batch_normalization_1233/moving_variance", "shape": [32], "dtype": "float32"}, {"name": "batch_normalization_1234/beta", "shape": [64], "dtype": "float32"}, {"name": "batch_normalization_1234/moving_mean", "shape": [64], "dtype": "float32"}, {"name": "batch_normalization_1234/moving_variance", "shape": [64], "dtype": "float32"}, {"name": "batch_normalization_1235/beta", "shape": [48], "dtype": "float32"}, {"name": "batch_normalization_1235/moving_mean", "shape": [48], "dtype": "float32"}, {"name": "batch_normalization_1235/moving_variance", "shape": [48], "dtype": "float32"}, {"name": "batch_normalization_1236/beta", "shape": [64], "dtype": "float32"}, {"name": "batch_normalization_1236/moving_mean", "shape": [64], "dtype": "float32"}, {"name": "batch_normalization_1236/moving_variance", "shape": [64], "dtype": "float32"}, {"name": "batch_normalization_1237/beta", "shape": [64], "dtype": "float32"}, {"name": "batch_normalization_1237/moving_mean", "shape": [64], "dtype": "float32"}, {"name": "batch_normalization_1237/moving_variance", "shape": [64], "dtype": "float32"}, {"name": "batch_normalization_1238/beta", "shape": [96], "dtype": "float32"}, {"name": "batch_normalization_1238/moving_mean", "shape": [96], "dtype": "float32"}, {"name": "batch_normalization_1238/moving_variance", "shape": [96], "dtype": "float32"}, {"name": "batch_normalization_1239/beta", "shape": [96], "dtype": "float32"}, {"name": "batch_normalization_1239/moving_mean", "shape": [96], "dtype": "float32"}, {"name": "batch_normalization_1239/moving_variance", "shape": [96], "dtype": "float32"}, {"name": "batch_normalization_1240/beta", "shape": [64], "dtype": "float32"}, {"name": "batch_normalization_1240/moving_mean", "shape": [64], "dtype": "float32"}, {"name": "batch_normalization_1240/moving_variance", "shape": [64], "dtype": "float32"}, {"name": "batch_normalization_1241/beta", "shape": [64], "dtype": "float32"}, {"name": "batch_normalization_1241/moving_mean", "shape": [64], "dtype": "float32"}, {"name": "batch_normalization_1241/moving_variance", "shape": [64], "dtype": "float32"}, {"name": "batch_normalization_1242/beta", "shape": [48], "dtype": "float32"}, {"name": "batch_normalization_1242/moving_mean", "shape": [48], "dtype": "float32"}, {"name": "batch_normalization_1242/moving_variance", "shape": [48], "dtype": "float32"}, {"name": "batch_normalization_1243/beta", "shape": [64], "dtype": "float32"}, {"name": "batch_normalization_1243/moving_mean", "shape": [64], "dtype": "float32"}, {"name": "batch_normalization_1243/moving_variance", "shape": [64], "dtype": "float32"}, {"name": "batch_normalization_1244/beta", "shape": [64], "dtype": "float32"}, {"name": "batch_normalization_1244/moving_mean", "shape": [64], "dtype": "float32"}, {"name": "batch_normalization_1244/moving_variance", "shape": [64], "dtype": "float32"}, {"name": "batch_normalization_1245/beta", "shape": [96], "dtype": "float32"}, {"name": "batch_normalization_1245/moving_mean", "shape": [96], "dtype": "float32"}, {"name": "batch_normalization_1245/moving_variance", "shape": [96], "dtype": "float32"}, {"name": "batch_normalization_1246/beta", "shape": [96], "dtype": "float32"}, {"name": "batch_normalization_1246/moving_mean", "shape": [96], "dtype": "float32"}, {"name": "batch_normalization_1246/moving_variance", "shape": [96], "dtype": "float32"}, {"name": "batch_normalization_1247/beta", "shape": [64], "dtype": "float32"}, {"name": "batch_normalization_1247/moving_mean", "shape": [64], "dtype": "float32"}, {"name": "batch_normalization_1247/moving_variance", "shape": [64], "dtype": "float32"}, {"name": "batch_normalization_1248/beta", "shape": [384], "dtype": "float32"}, {"name": "batch_normalization_1248/moving_mean", "shape": [384], "dtype": "float32"}, {"name": "batch_normalization_1248/moving_variance", "shape": [384], "dtype": "float32"}, {"name": "batch_normalization_1249/beta", "shape": [64], "dtype": "float32"}, {"name": "batch_normalization_1249/moving_mean", "shape": [64], "dtype": "float32"}, {"name": "batch_normalization_1249/moving_variance", "shape": [64], "dtype": "float32"}, {"name": "batch_normalization_1250/beta", "shape": [96], "dtype": "float32"}, {"name": "batch_normalization_1250/moving_mean", "shape": [96], "dtype": "float32"}, {"name": "batch_normalization_1250/moving_variance", "shape": [96], "dtype": "float32"}, {"name": "batch_normalization_1251/beta", "shape": [96], "dtype": "float32"}, {"name": "batch_normalization_1251/moving_mean", "shape": [96], "dtype": "float32"}, {"name": "batch_normalization_1251/moving_variance", "shape": [96], "dtype": "float32"}, {"name": "batch_normalization_1252/beta", "shape": [192], "dtype": "float32"}, {"name": "batch_normalization_1252/moving_mean", "shape": [192], "dtype": "float32"}, {"name": "batch_normalization_1252/moving_variance", "shape": [192], "dtype": "float32"}, {"name": "batch_normalization_1253/beta", "shape": [128], "dtype": "float32"}, {"name": "batch_normalization_1253/moving_mean", "shape": [128], "dtype": "float32"}, {"name": "batch_normalization_1253/moving_variance", "shape": [128], "dtype": "float32"}, {"name": "batch_normalization_1254/beta", "shape": [128], "dtype": "float32"}, {"name": "batch_normalization_1254/moving_mean", "shape": [128], "dtype": "float32"}, {"name": "batch_normalization_1254/moving_variance", "shape": [128], "dtype": "float32"}, {"name": "batch_normalization_1255/beta", "shape": [192], "dtype": "float32"}, {"name": "batch_normalization_1255/moving_mean", "shape": [192], "dtype": "float32"}, {"name": "batch_normalization_1255/moving_variance", "shape": [192], "dtype": "float32"}, {"name": "batch_normalization_1256/beta", "shape": [128], "dtype": "float32"}, {"name": "batch_normalization_1256/moving_mean", "shape": [128], "dtype": "float32"}, {"name": "batch_normalization_1256/moving_variance", "shape": [128], "dtype": "float32"}, {"name": "batch_normalization_1257/beta", "shape": [128], "dtype": "float32"}, {"name": "batch_normalization_1257/moving_mean", "shape": [128], "dtype": "float32"}, {"name": "batch_normalization_1257/moving_variance", "shape": [128], "dtype": "float32"}, {"name": "batch_normalization_1258/beta", "shape": [128], "dtype": "float32"}, {"name": "batch_normalization_1258/moving_mean", "shape": [128], "dtype": "float32"}, {"name": "batch_normalization_1258/moving_variance", "shape": [128], "dtype": "float32"}, {"name": "batch_normalization_1259/beta", "shape": [128], "dtype": "float32"}, {"name": "batch_normalization_1259/moving_mean", "shape": [128], "dtype": "float32"}, {"name": "batch_normalization_1259/moving_variance", "shape": [128], "dtype": "float32"}, {"name": "batch_normalization_1260/beta", "shape": [192], "dtype": "float32"}, {"name": "batch_normalization_1260/moving_mean", "shape": [192], "dtype": "float32"}, {"name": "batch_normalization_1260/moving_variance", "shape": [192], "dtype": "float32"}, {"name": "batch_normalization_1261/beta", "shape": [192], "dtype": "float32"}, {"name": "batch_normalization_1261/moving_mean", "shape": [192], "dtype": "float32"}, {"name": "batch_normalization_1261/moving_variance", "shape": [192], "dtype": "float32"}, {"name": "batch_normalization_1262/beta", "shape": [192], "dtype": "float32"}, {"name": "batch_normalization_1262/moving_mean", "shape": [192], "dtype": "float32"}, {"name": "batch_normalization_1262/moving_variance", "shape": [192], "dtype": "float32"}, {"name": "batch_normalization_1263/beta", "shape": [160], "dtype": "float32"}, {"name": "batch_normalization_1263/moving_mean", "shape": [160], "dtype": "float32"}, {"name": "batch_normalization_1263/moving_variance", "shape": [160], "dtype": "float32"}, {"name": "batch_normalization_1264/beta", "shape": [160], "dtype": "float32"}, {"name": "batch_normalization_1264/moving_mean", "shape": [160], "dtype": "float32"}, {"name": "batch_normalization_1264/moving_variance", "shape": [160], "dtype": "float32"}, {"name": "batch_normalization_1265/beta", "shape": [192], "dtype": "float32"}, {"name": "batch_normalization_1265/moving_mean", "shape": [192], "dtype": "float32"}, {"name": "batch_normalization_1265/moving_variance", "shape": [192], "dtype": "float32"}, {"name": "batch_normalization_1266/beta", "shape": [160], "dtype": "float32"}, {"name": "batch_normalization_1266/moving_mean", "shape": [160], "dtype": "float32"}, {"name": "batch_normalization_1266/moving_variance", "shape": [160], "dtype": "float32"}, {"name": "batch_normalization_1267/beta", "shape": [160], "dtype": "float32"}, {"name": "batch_normalization_1267/moving_mean", "shape": [160], "dtype": "float32"}, {"name": "batch_normalization_1267/moving_variance", "shape": [160], "dtype": "float32"}, {"name": "batch_normalization_1268/beta", "shape": [160], "dtype": "float32"}, {"name": "batch_normalization_1268/moving_mean", "shape": [160], "dtype": "float32"}, {"name": "batch_normalization_1268/moving_variance", "shape": [160], "dtype": "float32"}, {"name": "batch_normalization_1269/beta", "shape": [160], "dtype": "float32"}, {"name": "batch_normalization_1269/moving_mean", "shape": [160], "dtype": "float32"}, {"name": "batch_normalization_1269/moving_variance", "shape": [160], "dtype": "float32"}, {"name": "batch_normalization_1270/beta", "shape": [192], "dtype": "float32"}, {"name": "batch_normalization_1270/moving_mean", "shape": [192], "dtype": "float32"}, {"name": "batch_normalization_1270/moving_variance", "shape": [192], "dtype": "float32"}, {"name": "batch_normalization_1271/beta", "shape": [192], "dtype": "float32"}, {"name": "batch_normalization_1271/moving_mean", "shape": [192], "dtype": "float32"}, {"name": "batch_normalization_1271/moving_variance", "shape": [192], "dtype": "float32"}, {"name": "batch_normalization_1272/beta", "shape": [192], "dtype": "float32"}, {"name": "batch_normalization_1272/moving_mean", "shape": [192], "dtype": "float32"}, {"name": "batch_normalization_1272/moving_variance", "shape": [192], "dtype": "float32"}, {"name": "batch_normalization_1273/beta", "shape": [160], "dtype": "float32"}, {"name": "batch_normalization_1273/moving_mean", "shape": [160], "dtype": "float32"}, {"name": "batch_normalization_1273/moving_variance", "shape": [160], "dtype": "float32"}, {"name": "batch_normalization_1274/beta", "shape": [160], "dtype": "float32"}, {"name": "batch_normalization_1274/moving_mean", "shape": [160], "dtype": "float32"}, {"name": "batch_normalization_1274/moving_variance", "shape": [160], "dtype": "float32"}, {"name": "batch_normalization_1275/beta", "shape": [192], "dtype": "float32"}, {"name": "batch_normalization_1275/moving_mean", "shape": [192], "dtype": "float32"}, {"name": "batch_normalization_1275/moving_variance", "shape": [192], "dtype": "float32"}, {"name": "batch_normalization_1276/beta", "shape": [160], "dtype": "float32"}, {"name": "batch_normalization_1276/moving_mean", "shape": [160], "dtype": "float32"}, {"name": "batch_normalization_1276/moving_variance", "shape": [160], "dtype": "float32"}, {"name": "batch_normalization_1277/beta", "shape": [160], "dtype": "float32"}, {"name": "batch_normalization_1277/moving_mean", "shape": [160], "dtype": "float32"}, {"name": "batch_normalization_1277/moving_variance", "shape": [160], "dtype": "float32"}, {"name": "batch_normalization_1278/beta", "shape": [160], "dtype": "float32"}, {"name": "batch_normalization_1278/moving_mean", "shape": [160], "dtype": "float32"}, {"name": "batch_normalization_1278/moving_variance", "shape": [160], "dtype": "float32"}, {"name": "batch_normalization_1279/beta", "shape": [160], "dtype": "float32"}, {"name": "batch_normalization_1279/moving_mean", "shape": [160], "dtype": "float32"}, {"name": "batch_normalization_1279/moving_variance", "shape": [160], "dtype": "float32"}, {"name": "batch_normalization_1280/beta", "shape": [192], "dtype": "float32"}, {"name": "batch_normalization_1280/moving_mean", "shape": [192], "dtype": "float32"}, {"name": "batch_normalization_1280/moving_variance", "shape": [192], "dtype": "float32"}, {"name": "batch_normalization_1281/beta", "shape": [192], "dtype": "float32"}, {"name": "batch_normalization_1281/moving_mean", "shape": [192], "dtype": "float32"}, {"name": "batch_normalization_1281/moving_variance", "shape": [192], "dtype": "float32"}, {"name": "batch_normalization_1282/beta", "shape": [192], "dtype": "float32"}, {"name": "batch_normalization_1282/moving_mean", "shape": [192], "dtype": "float32"}, {"name": "batch_normalization_1282/moving_variance", "shape": [192], "dtype": "float32"}, {"name": "batch_normalization_1283/beta", "shape": [192], "dtype": "float32"}, {"name": "batch_normalization_1283/moving_mean", "shape": [192], "dtype": "float32"}, {"name": "batch_normalization_1283/moving_variance", "shape": [192], "dtype": "float32"}, {"name": "batch_normalization_1284/beta", "shape": [192], "dtype": "float32"}, {"name": "batch_normalization_1284/moving_mean", "shape": [192], "dtype": "float32"}, {"name": "batch_normalization_1284/moving_variance", "shape": [192], "dtype": "float32"}, {"name": "batch_normalization_1285/beta", "shape": [192], "dtype": "float32"}, {"name": "batch_normalization_1285/moving_mean", "shape": [192], "dtype": "float32"}, {"name": "batch_normalization_1285/moving_variance", "shape": [192], "dtype": "float32"}, {"name": "batch_normalization_1286/beta", "shape": [192], "dtype": "float32"}, {"name": "batch_normalization_1286/moving_mean", "shape": [192], "dtype": "float32"}, {"name": "batch_normalization_1286/moving_variance", "shape": [192], "dtype": "float32"}, {"name": "batch_normalization_1287/beta", "shape": [192], "dtype": "float32"}, {"name": "batch_normalization_1287/moving_mean", "shape": [192], "dtype": "float32"}, {"name": "batch_normalization_1287/moving_variance", "shape": [192], "dtype": "float32"}, {"name": "batch_normalization_1288/beta", "shape": [192], "dtype": "float32"}, {"name": "batch_normalization_1288/moving_mean", "shape": [192], "dtype": "float32"}, {"name": "batch_normalization_1288/moving_variance", "shape": [192], "dtype": "float32"}, {"name": "batch_normalization_1289/beta", "shape": [192], "dtype": "float32"}, {"name": "batch_normalization_1289/moving_mean", "shape": [192], "dtype": "float32"}, {"name": "batch_normalization_1289/moving_variance", "shape": [192], "dtype": "float32"}, {"name": "batch_normalization_1290/beta", "shape": [192], "dtype": "float32"}, {"name": "batch_normalization_1290/moving_mean", "shape": [192], "dtype": "float32"}, {"name": "batch_normalization_1290/moving_variance", "shape": [192], "dtype": "float32"}, {"name": "batch_normalization_1291/beta", "shape": [192], "dtype": "float32"}, {"name": "batch_normalization_1291/moving_mean", "shape": [192], "dtype": "float32"}, {"name": "batch_normalization_1291/moving_variance", "shape": [192], "dtype": "float32"}, {"name": "batch_normalization_1292/beta", "shape": [192], "dtype": "float32"}, {"name": "batch_normalization_1292/moving_mean", "shape": [192], "dtype": "float32"}, {"name": "batch_normalization_1292/moving_variance", "shape": [192], "dtype": "float32"}, {"name": "batch_normalization_1293/beta", "shape": [320], "dtype": "float32"}, {"name": "batch_normalization_1293/moving_mean", "shape": [320], "dtype": "float32"}, {"name": "batch_normalization_1293/moving_variance", "shape": [320], "dtype": "float32"}, {"name": "batch_normalization_1294/beta", "shape": [192], "dtype": "float32"}, {"name": "batch_normalization_1294/moving_mean", "shape": [192], "dtype": "float32"}, {"name": "batch_normalization_1294/moving_variance", "shape": [192], "dtype": "float32"}, {"name": "batch_normalization_1295/beta", "shape": [192], "dtype": "float32"}, {"name": "batch_normalization_1295/moving_mean", "shape": [192], "dtype": "float32"}, {"name": "batch_normalization_1295/moving_variance", "shape": [192], "dtype": "float32"}, {"name": "batch_normalization_1296/beta", "shape": [192], "dtype": "float32"}, {"name": "batch_normalization_1296/moving_mean", "shape": [192], "dtype": "float32"}, {"name": "batch_normalization_1296/moving_variance", "shape": [192], "dtype": "float32"}, {"name": "batch_normalization_1297/beta", "shape": [192], "dtype": "float32"}, {"name": "batch_normalization_1297/moving_mean", "shape": [192], "dtype": "float32"}, {"name": "batch_normalization_1297/moving_variance", "shape": [192], "dtype": "float32"}, {"name": "batch_normalization_1298/beta", "shape": [320], "dtype": "float32"}, {"name": "batch_normalization_1298/moving_mean", "shape": [320], "dtype": "float32"}, {"name": "batch_normalization_1298/moving_variance", "shape": [320], "dtype": "float32"}, {"name": "batch_normalization_1299/beta", "shape": [384], "dtype": "float32"}, {"name": "batch_normalization_1299/moving_mean", "shape": [384], "dtype": "float32"}, {"name": "batch_normalization_1299/moving_variance", "shape": [384], "dtype": "float32"}, {"name": "batch_normalization_1300/beta", "shape": [384], "dtype": "float32"}, {"name": "batch_normalization_1300/moving_mean", "shape": [384], "dtype": "float32"}, {"name": "batch_normalization_1300/moving_variance", "shape": [384], "dtype": "float32"}, {"name": "batch_normalization_1301/beta", "shape": [384], "dtype": "float32"}, {"name": "batch_normalization_1301/moving_mean", "shape": [384], "dtype": "float32"}, {"name": "batch_normalization_1301/moving_variance", "shape": [384], "dtype": "float32"}, {"name": "batch_normalization_1302/beta", "shape": [448], "dtype": "float32"}, {"name": "batch_normalization_1302/moving_mean", "shape": [448], "dtype": "float32"}, {"name": "batch_normalization_1302/moving_variance", "shape": [448], "dtype": "float32"}, {"name": "batch_normalization_1303/beta", "shape": [384], "dtype": "float32"}, {"name": "batch_normalization_1303/moving_mean", "shape": [384], "dtype": "float32"}, {"name": "batch_normalization_1303/moving_variance", "shape": [384], "dtype": "float32"}, {"name": "batch_normalization_1304/beta", "shape": [384], "dtype": "float32"}, {"name": "batch_normalization_1304/moving_mean", "shape": [384], "dtype": "float32"}, {"name": "batch_normalization_1304/moving_variance", "shape": [384], "dtype": "float32"}, {"name": "batch_normalization_1305/beta", "shape": [384], "dtype": "float32"}, {"name": "batch_normalization_1305/moving_mean", "shape": [384], "dtype": "float32"}, {"name": "batch_normalization_1305/moving_variance", "shape": [384], "dtype": "float32"}, {"name": "batch_normalization_1306/beta", "shape": [192], "dtype": "float32"}, {"name": "batch_normalization_1306/moving_mean", "shape": [192], "dtype": "float32"}, {"name": "batch_normalization_1306/moving_variance", "shape": [192], "dtype": "float32"}, {"name": "batch_normalization_1307/beta", "shape": [320], "dtype": "float32"}, {"name": "batch_normalization_1307/moving_mean", "shape": [320], "dtype": "float32"}, {"name": "batch_normalization_1307/moving_variance", "shape": [320], "dtype": "float32"}, {"name": "batch_normalization_1308/beta", "shape": [384], "dtype": "float32"}, {"name": "batch_normalization_1308/moving_mean", "shape": [384], "dtype": "float32"}, {"name": "batch_normalization_1308/moving_variance", "shape": [384], "dtype": "float32"}, {"name": "batch_normalization_1309/beta", "shape": [384], "dtype": "float32"}, {"name": "batch_normalization_1309/moving_mean", "shape": [384], "dtype": "float32"}, {"name": "batch_normalization_1309/moving_variance", "shape": [384], "dtype": "float32"}, {"name": "batch_normalization_1310/beta", "shape": [384], "dtype": "float32"}, {"name": "batch_normalization_1310/moving_mean", "shape": [384], "dtype": "float32"}, {"name": "batch_normalization_1310/moving_variance", "shape": [384], "dtype": "float32"}, {"name": "batch_normalization_1311/beta", "shape": [448], "dtype": "float32"}, {"name": "batch_normalization_1311/moving_mean", "shape": [448], "dtype": "float32"}, {"name": "batch_normalization_1311/moving_variance", "shape": [448], "dtype": "float32"}, {"name": "batch_normalization_1312/beta", "shape": [384], "dtype": "float32"}, {"name": "batch_normalization_1312/moving_mean", "shape": [384], "dtype": "float32"}, {"name": "batch_normalization_1312/moving_variance", "shape": [384], "dtype": "float32"}, {"name": "batch_normalization_1313/beta", "shape": [384], "dtype": "float32"}, {"name": "batch_normalization_1313/moving_mean", "shape": [384], "dtype": "float32"}, {"name": "batch_normalization_1313/moving_variance", "shape": [384], "dtype": "float32"}, {"name": "batch_normalization_1314/beta", "shape": [384], "dtype": "float32"}, {"name": "batch_normalization_1314/moving_mean", "shape": [384], "dtype": "float32"}, {"name": "batch_normalization_1314/moving_variance", "shape": [384], "dtype": "float32"}, {"name": "batch_normalization_1315/beta", "shape": [192], "dtype": "float32"}, {"name": "batch_normalization_1315/moving_mean", "shape": [192], "dtype": "float32"}, {"name": "batch_normalization_1315/moving_variance", "shape": [192], "dtype": "float32"}, {"name": "conv2d_1222/kernel", "shape": [3, 3, 3, 32], "dtype": "float32"}, {"name": "conv2d_1223/kernel", "shape": [3, 3, 32, 32], "dtype": "float32"}, {"name": "conv2d_1224/kernel", "shape": [3, 3, 32, 64], "dtype": "float32"}, {"name": "conv2d_1225/kernel", "shape": [1, 1, 64, 80], "dtype": "float32"}, {"name": "conv2d_1226/kernel", "shape": [3, 3, 80, 192], "dtype": "float32"}, {"name": "conv2d_1227/kernel", "shape": [1, 1, 192, 64], "dtype": "float32"}, {"name": "conv2d_1228/kernel", "shape": [1, 1, 192, 48], "dtype": "float32"}, {"name": "conv2d_1229/kernel", "shape": [5, 5, 48, 64], "dtype": "float32"}, {"name": "conv2d_1230/kernel", "shape": [1, 1, 192, 64], "dtype": "float32"}, {"name": "conv2d_1231/kernel", "shape": [3, 3, 64, 96], "dtype": "float32"}, {"name": "conv2d_1232/kernel", "shape": [3, 3, 96, 96], "dtype": "float32"}, {"name": "conv2d_1233/kernel", "shape": [1, 1, 192, 32], "dtype": "float32"}, {"name": "conv2d_1234/kernel", "shape": [1, 1, 256, 64], "dtype": "float32"}, {"name": "conv2d_1235/kernel", "shape": [1, 1, 256, 48], "dtype": "float32"}, {"name": "conv2d_1236/kernel", "shape": [5, 5, 48, 64], "dtype": "float32"}, {"name": "conv2d_1237/kernel", "shape": [1, 1, 256, 64], "dtype": "float32"}, {"name": "conv2d_1238/kernel", "shape": [3, 3, 64, 96], "dtype": "float32"}, {"name": "conv2d_1239/kernel", "shape": [3, 3, 96, 96], "dtype": "float32"}, {"name": "conv2d_1240/kernel", "shape": [1, 1, 256, 64], "dtype": "float32"}, {"name": "conv2d_1241/kernel", "shape": [1, 1, 288, 64], "dtype": "float32"}, {"name": "conv2d_1242/kernel", "shape": [1, 1, 288, 48], "dtype": "float32"}, {"name": "conv2d_1243/kernel", "shape": [5, 5, 48, 64], "dtype": "float32"}, {"name": "conv2d_1244/kernel", "shape": [1, 1, 288, 64], "dtype": "float32"}, {"name": "conv2d_1245/kernel", "shape": [3, 3, 64, 96], "dtype": "float32"}, {"name": "conv2d_1246/kernel", "shape": [3, 3, 96, 96], "dtype": "float32"}, {"name": "conv2d_1247/kernel", "shape": [1, 1, 288, 64], "dtype": "float32"}, {"name": "conv2d_1248/kernel", "shape": [3, 3, 288, 384], "dtype": "float32"}, {"name": "conv2d_1249/kernel", "shape": [1, 1, 288, 64], "dtype": "float32"}, {"name": "conv2d_1250/kernel", "shape": [3, 3, 64, 96], "dtype": "float32"}, {"name": "conv2d_1251/kernel", "shape": [3, 3, 96, 96], "dtype": "float32"}, {"name": "conv2d_1252/kernel", "shape": [1, 1, 768, 192], "dtype": "float32"}, {"name": "conv2d_1253/kernel", "shape": [1, 1, 768, 128], "dtype": "float32"}, {"name": "conv2d_1254/kernel", "shape": [1, 7, 128, 128], "dtype": "float32"}, {"name": "conv2d_1255/kernel", "shape": [7, 1, 128, 192], "dtype": "float32"}, {"name": "conv2d_1256/kernel", "shape": [1, 1, 768, 128], "dtype": "float32"}, {"name": "conv2d_1257/kernel", "shape": [7, 1, 128, 128], "dtype": "float32"}, {"name": "conv2d_1258/kernel", "shape": [1, 7, 128, 128], "dtype": "float32"}, {"name": "conv2d_1259/kernel", "shape": [7, 1, 128, 128], "dtype": "float32"}, {"name": "conv2d_1260/kernel", "shape": [1, 7, 128, 192], "dtype": "float32"}, {"name": "conv2d_1261/kernel", "shape": [1, 1, 768, 192], "dtype": "float32"}, {"name": "conv2d_1262/kernel", "shape": [1, 1, 768, 192], "dtype": "float32"}, {"name": "conv2d_1263/kernel", "shape": [1, 1, 768, 160], "dtype": "float32"}, {"name": "conv2d_1264/kernel", "shape": [1, 7, 160, 160], "dtype": "float32"}, {"name": "conv2d_1265/kernel", "shape": [7, 1, 160, 192], "dtype": "float32"}, {"name": "conv2d_1266/kernel", "shape": [1, 1, 768, 160], "dtype": "float32"}, {"name": "conv2d_1267/kernel", "shape": [7, 1, 160, 160], "dtype": "float32"}, {"name": "conv2d_1268/kernel", "shape": [1, 7, 160, 160], "dtype": "float32"}, {"name": "conv2d_1269/kernel", "shape": [7, 1, 160, 160], "dtype": "float32"}, {"name": "conv2d_1270/kernel", "shape": [1, 7, 160, 192], "dtype": "float32"}, {"name": "conv2d_1271/kernel", "shape": [1, 1, 768, 192], "dtype": "float32"}, {"name": "conv2d_1272/kernel", "shape": [1, 1, 768, 192], "dtype": "float32"}, {"name": "conv2d_1273/kernel", "shape": [1, 1, 768, 160], "dtype": "float32"}, {"name": "conv2d_1274/kernel", "shape": [1, 7, 160, 160], "dtype": "float32"}, {"name": "conv2d_1275/kernel", "shape": [7, 1, 160, 192], "dtype": "float32"}, {"name": "conv2d_1276/kernel", "shape": [1, 1, 768, 160], "dtype": "float32"}, {"name": "conv2d_1277/kernel", "shape": [7, 1, 160, 160], "dtype": "float32"}, {"name": "conv2d_1278/kernel", "shape": [1, 7, 160, 160], "dtype": "float32"}, {"name": "conv2d_1279/kernel", "shape": [7, 1, 160, 160], "dtype": "float32"}, {"name": "conv2d_1280/kernel", "shape": [1, 7, 160, 192], "dtype": "float32"}, {"name": "conv2d_1281/kernel", "shape": [1, 1, 768, 192], "dtype": "float32"}, {"name": "conv2d_1282/kernel", "shape": [1, 1, 768, 192], "dtype": "float32"}, {"name": "conv2d_1283/kernel", "shape": [1, 1, 768, 192], "dtype": "float32"}, {"name": "conv2d_1284/kernel", "shape": [1, 7, 192, 192], "dtype": "float32"}, {"name": "conv2d_1285/kernel", "shape": [7, 1, 192, 192], "dtype": "float32"}, {"name": "conv2d_1286/kernel", "shape": [1, 1, 768, 192], "dtype": "float32"}, {"name": "conv2d_1287/kernel", "shape": [7, 1, 192, 192], "dtype": "float32"}, {"name": "conv2d_1288/kernel", "shape": [1, 7, 192, 192], "dtype": "float32"}, {"name": "conv2d_1289/kernel", "shape": [7, 1, 192, 192], "dtype": "float32"}, {"name": "conv2d_1290/kernel", "shape": [1, 7, 192, 192], "dtype": "float32"}, {"name": "conv2d_1291/kernel", "shape": [1, 1, 768, 192], "dtype": "float32"}, {"name": "conv2d_1292/kernel", "shape": [1, 1, 768, 192], "dtype": "float32"}, {"name": "conv2d_1293/kernel", "shape": [3, 3, 192, 320], "dtype": "float32"}, {"name": "conv2d_1294/kernel", "shape": [1, 1, 768, 192], "dtype": "float32"}, {"name": "conv2d_1295/kernel", "shape": [1, 7, 192, 192], "dtype": "float32"}, {"name": "conv2d_1296/kernel", "shape": [7, 1, 192, 192], "dtype": "float32"}, {"name": "conv2d_1297/kernel", "shape": [3, 3, 192, 192], "dtype": "float32"}, {"name": "conv2d_1298/kernel", "shape": [1, 1, 1280, 320], "dtype": "float32"}, {"name": "conv2d_1299/kernel", "shape": [1, 1, 1280, 384], "dtype": "float32"}, {"name": "conv2d_1300/kernel", "shape": [1, 3, 384, 384], "dtype": "float32"}, {"name": "conv2d_1301/kernel", "shape": [3, 1, 384, 384], "dtype": "float32"}, {"name": "conv2d_1302/kernel", "shape": [1, 1, 1280, 448], "dtype": "float32"}, {"name": "conv2d_1303/kernel", "shape": [3, 3, 448, 384], "dtype": "float32"}, {"name": "conv2d_1304/kernel", "shape": [1, 3, 384, 384], "dtype": "float32"}, {"name": "conv2d_1305/kernel", "shape": [3, 1, 384, 384], "dtype": "float32"}, {"name": "conv2d_1306/kernel", "shape": [1, 1, 1280, 192], "dtype": "float32"}, {"name": "conv2d_1307/kernel", "shape": [1, 1, 2048, 320], "dtype": "float32"}, {"name": "conv2d_1308/kernel", "shape": [1, 1, 2048, 384], "dtype": "float32"}, {"name": "conv2d_1309/kernel", "shape": [1, 3, 384, 384], "dtype": "float32"}, {"name": "conv2d_1310/kernel", "shape": [3, 1, 384, 384], "dtype": "float32"}, {"name": "conv2d_1311/kernel", "shape": [1, 1, 2048, 448], "dtype": "float32"}, {"name": "conv2d_1312/kernel", "shape": [3, 3, 448, 384], "dtype": "float32"}, {"name": "conv2d_1313/kernel", "shape": [1, 3, 384, 384], "dtype": "float32"}, {"name": "conv2d_1314/kernel", "shape": [3, 1, 384, 384], "dtype": "float32"}, {"name": "conv2d_1315/kernel", "shape": [1, 1, 2048, 192], "dtype": "float32"}, {"name": "dense_32/kernel", "shape": [2048, 1024], "dtype": "float32"}, {"name": "dense_32/bias", "shape": [1024], "dtype": "float32"}, {"name": "dense_33/kernel", "shape": [1024, 29], "dtype": "float32"}, {"name": "dense_33/bias", "shape": [29], "dtype": "float32"}]}]}